DDPG/weights/actor.pth (torch, 490711 bytes, 5 tensors)

fc1.weight f4 [400, 3]
0	0xbea9cf22	-0.33165842
1	0x3f00af7b	0.5026776
2	0xbe8f0890	-0.2793622
3	0xbf1fc7d9	-0.6241432
4	0xbf085d51	-0.5326739
5	0x3e7398aa	0.23788705
6	0xbe3f9a75	-0.18711264
7	0xbdf024ce	-0.1172577
8	0x3ecf4afb	0.40486893
9	0xbd71bff0	-0.059020936
10	0x3d381159	0.04493842
11	0xbda7c38f	-0.08191597
12	0x3e25b582	0.16182521
13	0xbef4b6f8	-0.47795844
14	0x3dcd9057	0.10037296
15	0x3ed2af9e	0.4114961
16	0x3d9e6fa8	0.077361405
17	0x3e967670	0.29387236
18	0xbdffdcd7	-0.12493294
19	0x3f16a21a	0.588411
20	0xbe96a6d0	-0.29424143
21	0x3de7127b	0.11282822
22	0x3e871158	0.2638042
23	0x3e34c42d	0.1765296
24	0xbea91829	-0.33026245
25	0x3ed03870	0.40668058
26	0xbe3b05d7	-0.18263946
27	0xbeaec2d4	-0.34133017
28	0x3e04c727	0.12966596
29	0x3ecf808b	0.40527758
30	0xbeae69de	-0.34065145
31	0xbde15872	-0.11003198
32	0xbea12db6	-0.31480187
33	0x3e8aa01d	0.27075282
34	0xbeb6f619	-0.35734633
35	0x3ee73011	0.4515386
36	0x3ee96de6	0.45591658
37	0xbdd9a70e	-0.10627566
38	0xbe9a2430	-0.30105734
39	0xbe263bd5	-0.16233762
40	0xbf1ee631	-0.62069994
41	0xbeb15339	-0.34633806
42	0xbed0763a	-0.407152
43	0x3d1c8ff4	0.038223222
44	0x3ea9d59e	0.3317079
45	0xbe6075ea	-0.2191998
46	0xbb577c71	-0.003288057
47	0xbeeb2a49	-0.459307
48	0xbea34563	-0.31888875
49	0xbf0b8d9f	-0.5451297
50	0x3d1f7fa8	0.0389401
51	0xbe0fe4d0	-0.14052129
52	0x3eda0445	0.42581382
53	0xbdc8411f	-0.09778046
54	0xbf045a85	-0.5170062
55	0xbece702a	-0.4031995
56	0xbe899f0a	-0.2687915
57	0x3daa4a2a	0.08314927
58	0xbe54cba3	-0.20780806
59	0xbee7a88c	-0.4524578
60	0xbf1b66c4	-0.6070368
61	0x3efd1e0b	0.49436983
62	0xbc8bca88	-0.017064348
63	0xbebc6015	-0.36792055
64	0xbdc214c2	-0.094766155
65	0xbeb492f0	-0.35268354
66	0x3b0c933d	0.0021450066
67	0x3e8aeaba	0.27132207
68	0x3ef5303e	0.47888368
69	0x3ed55c43	0.41671953
70	0xbf087240	-0.5329933
71	0xbe83e46d	-0.25760213
72	0xbecf690d	-0.40509835
73	0xbd5eecbc	-0.054424986
74	0x3f0a63c3	0.54058474
75	0x3c2e3997	0.010633848
76	0xbf265235	-0.6496919
77	0xbe82cb67	-0.2554581
78	0x3e2a85a5	0.16652544
79	0xbed725a4	-0.42020905
80	0x3e07448b	0.13209741
81	0xbf0cad62	-0.5495206
82	0xbf2307fb	-0.6368405
83	0xbe8a2c07	-0.26986715
84	0xbd130cbb	-0.035900813
85	0xbdf6036b	-0.12012371
86	0xbece7280	-0.40321732
87	0x3e64aa72	0.22330645
88	0xbeb05d4b	-0.34446177
89	0x3ea5ad4b	0.32358775
90	0xbf166a2d	-0.5875576
91	0xbeeb7ede	-0.4599523
92	0x3ee4d8c8	0.4469664
93	0xbefb86d6	-0.4912631
94	0xbf278650	-0.6543932
95	0xbef76756	-0.48321027
96	0x3f119d2d	0.56880456
97	0xbf0b249d	-0.5435274
98	0xbe423010	-0.18963647
99	0x3d420d65	0.047376055
100	0xbea59e5d	-0.32347384
101	0xbed2c3cf	-0.41165015
102	0xbe636c77	-0.22209345
103	0xbf18d9f6	-0.5970758
104	0x3ebfe2cc	0.3747772
105	0xbf0f8522	-0.5606252
106	0x3f2f41e9	0.68459946
107	0xbe289c5e	-0.164659
108	0xbec7262e	-0.38896316
109	0xbee3d511	-0.44498494
110	0xbe99af27	-0.30016443
111	0xbecb4dd8	-0.39707828
112	0xbeb53eda	-0.35399514
113	0xbeb7fb12	-0.3593374
114	0xbec0bd90	-0.37644625
115	0xbecf8288	-0.40529275
116	0xbeb7261a	-0.35771257
117	0x3d9575df	0.07297873
118	0xbeb99604	-0.36247265
119	0x3ed9f49c	0.42569435
120	0xbee607f4	-0.44927943
121	0xbed5f906	-0.41791552
122	0x3e99ae82	0.3001595
123	0x3d20868c	0.039190814
124	0x3d702c03	0.058635723
125	0xbee8ec43	-0.45492753
126	0x3edacfed	0.4273676
127	0xbf257a3d	-0.64639646
128	0xbdcffdd0	-0.10155833
129	0xbee9df55	-0.456782
130	0x3e8f3260	0.2796812
131	0x3ee5cabe	0.44881243
132	0xbf1e53f1	-0.61846834
133	0xbf304bdf	-0.6886577
134	0x3ddd6836	0.10810892
135	0xbebf12fa	-0.37319165
136	0xbea3e0de	-0.32007498
137	0x3d900cc6	0.07033686
138	0xbe71e47f	-0.2362232
139	0xbd8c0451	-0.06836761
140	0xbdf7eb16	-0.12105386
141	0xbf11eb07	-0.5699925
142	0xbf02b399	-0.51055294
143	0xbdfb58cc	-0.12272796
144	0xbde79b8b	-0.11308964
145	0xbe48549a	-0.19563523
146	0xbecf38f2	-0.40473133
147	0xbe680f41	-0.22662069
148	0xbded19ec	-0.1157721
149	0xbe6c69be	-0.23087212
150	0xbc7c1258	-0.015385233
151	0xbe1ef1c4	-0.15521914
152	0x3ebcb980	0.36860275
153	0xbe66083f	-0.22464083
154	0xbead7c90	-0.33884096
155	0x3ec99474	0.39371073
156	0xbe6dcca0	-0.2322259
157	0xbf026b18	-0.5094466
158	0x3e84689b	0.25861058
159	0x3ee18a76	0.4405095
160	0xbef79504	-0.48355877
161	0x3e815808	0.25262475
162	0x3da5e8f2	0.081010714
163	0x3f576227	0.84134144
164	0x3d8bc374	0.06824389
165	0x3dd047f3	0.10169973
166	0x3bf3bdc3	0.007438393
167	0xbeaf8251	-0.3427911
168	0xbeb4bc62	-0.35299975
169	0x3e936d11	0.2879415
170	0xbd98b53c	-0.07456443
171	0x3e192ad0	0.14957738
172	0x3ed7bfba	0.42138463
173	0xbeb21da1	-0.3478823
174	0x3e2bc520	0.16774416
175	0xbe9758a1	-0.29559806
176	0xbf05dae6	-0.5228714
177	0xbf166d19	-0.5876022
178	0x3f37e499	0.7183319
179	0x3e8a9471	0.27066377
180	0xbec5e3a2	-0.38650233
181	0x3e9d7788	0.30755258
182	0x3f0722fa	0.52787745
183	0xbd6d4a62	-0.057932265
184	0x3ece0aa7	0.40242502
185	0xbcff920c	-0.03119757
186	0xbe808d9b	-0.25108036
187	0xbeb067a8	-0.34454083
188	0xbeab317f	-0.334362
189	0x3e81087c	0.25201786
190	0x3ea83182	0.3285027
191	0xbf0ad1e5	-0.54226524
192	0x3e39b6b7	0.18136106
193	0xbeb5353a	-0.3539217
194	0xbe2842db	-0.16431753
195	0x3ef014b8	0.46890807
196	0x3f186c49	0.5954023
197	0xbd728968	-0.059213072
198	0xbea25e95	-0.31712785
199	0xbe93183e	-0.28729433
200	0xbe18e521	-0.14931156
201	0x3edf8319	0.43654707
202	0xbec0fbf2	-0.3769222
203	0x3dd99512	0.10624136
204	0xbf085122	-0.532488
205	0x3e315e85	0.17321213
206	0xbedc838b	-0.4306911
207	0xbf1c437e	-0.61040485
208	0xbecbf2d8	-0.39833713
209	0xbe8ba08a	-0.2727092
210	0xbe0e4871	-0.13894822
211	0x3e163038	0.14666831
212	0xbdc3d71e	-0.09562515
213	0xbdeccf06	-0.11562924
214	0x3ed0348b	0.40665087
215	0xbeb5daf4	-0.3551861
216	0x3eaad81f	0.33368012
217	0x3f0df146	0.5544628
218	0x3f010f0c	0.50413585
219	0xbea93658	-0.33049273
220	0x3f1bd945	0.608784
221	0x3e801726	0.2501766
222	0xbf0580e4	-0.52149796
223	0xbe4edd1d	-0.20201536
224	0x3e4d83c3	0.20069794
225	0x3dfae9f8	0.12251657
226	0x3ee77b39	0.452112
227	0xbcd388e8	-0.025822118
228	0xbcf50372	-0.02990887
229	0x3dbeb4ce	0.093118295
230	0x3e73d6c1	0.23812391
231	0x3ec843bb	0.39114174
232	0x3eb5e709	0.35527828
233	0xbb9d74d5	-0.004805187
234	0x3e8dc975	0.27692762
235	0xbd3a982e	-0.045555286
236	0x3e5c2a71	0.21500565
237	0x3ef491d8	0.4776752
238	0x3db46e68	0.08810121
239	0xbe5c86a9	-0.21535744
240	0xbb898254	-0.0041964445
241	0x3eadbd05	0.33933273
242	0xbe1e7957	-0.15475975
243	0x3d21a210	0.039461195
244	0xbdba7a10	-0.09105313
245	0xbca19f80	-0.019729376
246	0x3f02cea9	0.5109659
247	0x3ead6888	0.33868814
248	0xbef44eb4	-0.47716296
249	0xbedf13f0	-0.435699
250	0xbede6b4d	-0.4344124
251	0x3dbb3452	0.09140839
252	0x3e6d04a6	0.23146304
253	0xbd78159c	-0.060567483
254	0x3e91b53a	0.28458577
255	0x3e5de0d8	0.21667802

fc1.bias f4 [400]
0	0xbdca8787	-0.09889131
1	0xbea534a3	-0.3226672
2	0xbebec4a9	-0.37259415
3	0xbea144ce	-0.31497806
4	0x3eb761f4	0.3581692
5	0xbf01f7c2	-0.50768673
6	0x3ed248bd	0.4107112
7	0x3ebc8ddd	0.36826983
8	0xbf0e03f0	-0.5547476
9	0x3de382f9	0.111089654
10	0xbf0980bc	-0.5371206
11	0x3dff2dfc	0.12459943
12	0xbd421941	-0.047387365
13	0xbd0d0187	-0.034425285
14	0x3e424263	0.18970637
15	0xbe57aaf5	-0.21061309
16	0x3e89d03a	0.26916677
17	0x3ef55ada	0.47920877
18	0xbe899bd7	-0.2687671
19	0x3e081c1d	0.13291974
20	0xbeaf5cf9	-0.3425062
21	0x3ee1e7be	0.44122118
22	0x3e02ad44	0.12761408
23	0x3cb69fe4	0.022293039
24	0xbeb6ce25	-0.3570415
25	0xbc775bfd	-0.015097615
26	0xbe4207ff	-0.18948363
27	0x3dee773f	0.11643838
28	0x3efed517	0.4977195
29	0x3f0438bf	0.5164909
30	0xbe533d75	-0.20628913
31	0x3eebe41a	0.46072465
32	0xbf1283d1	-0.57232386
33	0x3cd4ebdc	0.025991373
34	0x3d24982c	0.040184185
35	0xbb0df70d	-0.0021662146
36	0x3e97f1d7	0.29676697
37	0xbec1dd0f	-0.37863967
38	0x3eebc163	0.4604598
39	0x3e84ebe7	0.2596123
40	0x3ce597d0	0.028026491
41	0xbf0e845d	-0.5567072
42	0x3e2f586f	0.17123578
43	0x3e1d9ff6	0.15393052
44	0x3ed45cc4	0.41477025
45	0xbe40f9d8	-0.18845308
46	0xbf1495f9	-0.5804134
47	0xbe28dcd2	-0.16490486
48	0xbde3615c	-0.11102554
49	0x3ec74458	0.3891933
50	0xbf0bf579	-0.54671437
51	0xbd88d9ce	-0.06682168
52	0x3d928356	0.071539566
53	0xbe9525fb	-0.2913054
54	0x3f0749f1	0.528472
55	0xbf2503dd	-0.6445902
56	0x3e63e17b	0.22253983
57	0x3f06e945	0.5269969
58	0xbe9b891e	-0.3037805
59	0xbf1b0f63	-0.60570353
60	0x3d804354	0.06262842
61	0x3f030ef3	0.51194686
62	0x3e40ed51	0.18840529
63	0xbead3217	-0.33827278
64	0xbe342490	-0.17592072
65	0xbe89dc4c	-0.26925886
66	0xbf0282c5	-0.5098079
67	0x3e3d3797	0.18478237
68	0xbe8c5024	-0.27404892
69	0x3ee7e00c	0.45288122
70	0xbee49298	-0.44643092
71	0xbf20ddd0	-0.6283846
72	0xbe003435	-0.12519915
73	0x3ed8546a	0.42251903
74	0x3ec1e25b	0.37868008
75	0x3e781e49	0.24230303
76	0x3d0bab2b	0.034098785
77	0x3e94f91a	0.290963
78	0xbcbd44c8	-0.023104087
79	0x3e896e95	0.2684218
80	0x3dce0827	0.10060149
81	0xbefc1e56	-0.49241894
82	0xbf079adf	-0.5297069
83	0x3ee3f0e1	0.44519714
84	0xbe3e2bbf	-0.18571375
85	0xbe053636	-0.13008961
86	0xbe1865ec	-0.1488263
87	0x3e7c9830	0.2466743
88	0x3ea5aa37	0.32356426
89	0x3efd3d85	0.49460998
90	0xbefcfc05	-0.49411026
91	0xbecd877e	-0.40142435
92	0xbe21b5e5	-0.15792044
93	0xbd37427a	-0.04474113
94	0xbe0c78a6	-0.13717899
95	0x3e559e28	0.20861113
96	0xbe2c92aa	-0.16852823
97	0xbc9cfda5	-0.019163916
98	0x3e2405ed	0.16017886
99	0x3eb9b081	0.36267474
100	0xbe209374	-0.15681249
101	0x3d8c8305	0.068609275
102	0x3e7a00a9	0.24414314
103	0xbef0d4c7	-0.47037336
104	0xbddd0733	-0.10792389
105	0x3e9b4e1b	0.30333027
106	0x3f021a85	0.50821716
107	0xbe8a7cb2	-0.2704826
108	0xbdb61f9f	-0.0889275
109	0x3f1f7382	0.62285626
110	0xbf0041fa	-0.5010067
111	0x3e125780	0.14291191
112	0x3e05295f	0.13004063
113	0xbea8f7ce	-0.3300156
114	0x3d25ecc6	0.040509008
115	0x3ea997b3	0.3312355
116	0x3ecb8fc6	0.39758128
117	0x3d2d463f	0.04230332
118	0xbee61929	-0.4494107
119	0xbcb51cad	-0.0221084
120	0x3edec112	0.43506676
121	0x3e16b9a9	0.14719261
122	0xbec55ad2	-0.38545853
123	0x3e8ff830	0.2811904
124	0x3e2b54b0	0.16731524
125	0x3eda0a60	0.4258604
126	0x3cf8c98e	0.030369546
127	0xbea5ec5f	-0.324069
128	0x3e8474d7	0.25870392
129	0x3f08eaa5	0.5348304
130	0xbef9003a	-0.48632985
131	0xbc22847b	-0.009919281
132	0xbee333b4	-0.44375384
133	0x3e96674f	0.29375693
134	0x3ef48ef1	0.47765306
135	0xbc714b7f	-0.014727472
136	0x3f0761ae	0.5288342
137	0x3d94ba52	0.072621
138	0xbe67f0f5	-0.22650512
139	0x3ed49297	0.4151809
140	0xbe96512f	-0.29358813
141	0x3f1c6ad2	0.61100495
142	0xbecfb4ff	-0.40567777
143	0x3d485949	0.048913274
144	0x3e38ab47	0.18034087
145	0xbf01af34	-0.50657964
146	0x3cefe614	0.029284514
147	0x3ea21a04	0.31660473
148	0x3f059d6b	0.52193326
149	0x3d8f2e03	0.06991198
150	0x3e73b9d3	0.23801355
151	0x3e4def27	0.2011076
152	0xbed90916	-0.42389745
153	0xbe6c57fd	-0.2308044
154	0xbef810cc	-0.48450315
155	0x3e7dae5e	0.24773547
156	0x3ee0325e	0.43788427
157	0x3ebd8860	0.37018108
158	0xbebf3bf2	-0.37350422
159	0xbf155c93	-0.5834438
160	0x3e832afd	0.25618735
161	0x3d85ce72	0.06533517
162	0xbebbd66d	-0.3668703
163	0xbed8f9eb	-0.42378172
164	0xbf19a488	-0.6001668
165	0xbf04f59f	-0.5193729
166	0xbec58635	-0.38578954
167	0x3eb6da1d	0.35713282
168	0xbdf8838b	-0.12134465
169	0x3e75c283	0.23999982
170	0xbe404825	-0.18777521
171	0x3e9963c0	0.29958916
172	0x3e8c8276	0.27443284
173	0xbed290c3	-0.4112607
174	0xbebb76da	-0.36614114
175	0xbea3875e	-0.31939214
176	0xbe9c6cd4	-0.3055178
177	0x3e960065	0.29297176
178	0x3e1c6950	0.15274549
179	0x3ddaa312	0.106756344
180	0x3ece6914	0.40314543
181	0x3e2a95ad	0.1665866
182	0xbe640fcd	-0.22271653
183	0x3cebaf50	0.028770119
184	0xbb241a22	-0.002503999
185	0x3e2d63cb	0.16932599
186	0x3ec04d0f	0.3755879
187	0x3ef33279	0.47499445
188	0xbeb4704f	-0.35241935
189	0x3d19cbb0	0.037547767
190	0x3ea7e0b1	0.32788613
191	0x3daddd8f	0.084895246
192	0xbe16c5b3	-0.14723854
193	0x3efe36d0	0.49651194
194	0xbecb0d77	-0.3965871
195	0xbc15bfa5	-0.00913993
196	0x3f23c9bc	0.639797
197	0xbede9fcb	-0.43481287
198	0x3d9ca575	0.07648746
199	0xbe36f0d2	-0.17865303
200	0x3ed34540	0.4126377
201	0x3e32e4b9	0.17470063
202	0x3f01ac10	0.5065317
203	0x3e52f442	0.2060099
204	0xbdcf8ea6	-0.1013463
205	0xbe83260e	-0.2561497
206	0xbdc56846	-0.09639029
207	0xbe47a53a	-0.19496623
208	0x3ea56f6f	0.3231158
209	0x3e862158	0.26197314
210	0x3e9a43ca	0.30129844
211	0x3edc88a7	0.43073007
212	0xbf0c4fdb	-0.5480935
213	0x3c9279df	0.017880378
214	0xbeb5f868	-0.3554108
215	0xbeb27519	-0.34854963
216	0x3e96019a	0.29298097
217	0x3c81ceb6	0.015845638
218	0xbef6445b	-0.48099026
219	0xbd529156	-0.051408134
220	0x3dcf918d	0.101351835
221	0xbd345830	-0.044029415
222	0xbee4808d	-0.44629326
223	0xbf0279d0	-0.5096712
224	0xbeafd661	-0.34343246
225	0x3f0781e4	0.5293257
226	0x3f0f12db	0.55888146
227	0x3e962e6f	0.293323
228	0x3e2cdf88	0.16882145
229	0xbe3d8233	-0.18506698
230	0xbf18724a	-0.5954939
231	0xbe28efa3	-0.16497664
232	0xbeea814c	-0.4580177
233	0xbeb714b8	-0.35757995
234	0xbeb5d9e3	-0.35517797
235	0xbce02ac8	-0.02736415
236	0x3e0c450e	0.13698217
237	0x3eeb4094	0.45947707
238	0xbd245488	-0.040119678
239	0x3e838b7c	0.25692356
240	0xbdc3cfa8	-0.09561092
241	0x3eb51116	0.35364598
242	0x3e04fa4a	0.12986103
243	0x3d3d89a3	0.04627384
244	0x3ed9787a	0.4247473
245	0x3e056011	0.13024928
246	0x3e4aceb2	0.1980541
247	0x3e072937	0.13199316
248	0xbf0d814f	-0.55275434
249	0xbc106e23	-0.008815321
250	0x3f09d0e0	0.5383434
251	0x3e8ad732	0.27117306
252	0xbeb01f5b	-0.34398922
253	0x3dd7f74f	0.10545217
254	0x3e983167	0.2972519
255	0xbeb156fd	-0.3463668

fc2.weight f4 [300, 400]
0	0xbd3b9b49	-0.04580239
1	0xbbf59ed8	-0.0074957423
2	0xbc7faa7f	-0.015604614
3	0xbcf2b3da	-0.029626776
4	0xbd301dde	-0.042997234
5	0x3cf2854e	0.02960458
6	0xb9cd5a3e	-0.00039167883
7	0xbb828701	-0.003983379
8	0x3d0b5b15	0.03402241
9	0x3cbcb4d3	0.023035442
10	0x3b90db70	0.0044206902
11	0x3c937511	0.018000158
12	0xbbbe81d2	-0.0058138156
13	0x3ce85ad3	0.02836362
14	0xbc5222bc	-0.012825664
15	0x3ca63612	0.020289455
16	0x397d8ed1	0.00024181163
17	0xbc9316e2	-0.017955247
18	0xbd20ac3e	-0.039226763
19	0x3d082f47	0.033248212
20	0x3c591f00	0.01325202
21	0xbd80c0ca	-0.062867716
22	0x3ce25775	0.027629593
23	0xbc6b36f2	-0.014356362
24	0xbd3a9f85	-0.045562286
25	0xbd48733d	-0.048938025
26	0x3d4f0313	0.05054004
27	0xbc962f72	-0.01833317
28	0xbd26b7d2	-0.04070265
29	0x3ceacb21	0.028661313
30	0x3d2aac52	0.041668244
31	0xbc49c9bc	-0.012316164
32	0xbc37048a	-0.011170516
33	0xbd3d9897	-0.0462881
34	0x3bbd3ed0	0.00577531
35	0xbd66ce7e	-0.05634927
36	0x3b0917fc	0.0020918837
37	0xbd097dac	-0.033567116
38	0xbd64e92d	-0.055886436
39	0xbcc4f793	-0.024043834
40	0xbca8561d	-0.020548875
41	0xbd3a68bd	-0.045510042
42	0xbba53916	-0.0050422056
43	0x3ce659a1	0.02811891
44	0xbb4bd7c5	-0.003110395
45	0xbc3fdffe	-0.011711119
46	0x3c3d47d8	0.011552773
47	0xbc651c09	-0.013983735
48	0x3d3ca093	0.046051573
49	0xbd23d476	-0.03999754
50	0xbc3d7d6e	-0.011565549
51	0xbd022ea0	-0.031782746
52	0xbcf3d836	-0.029766183
53	0x3d2caf0f	0.042159136
54	0xbd0f47be	-0.034980528
55	0xbd3ebcca	-0.046566762
56	0xbd1f9bbd	-0.038966883
57	0xbd3d8eab	-0.046278637
58	0xbb81e490	-0.0039640144
59	0x3c97f222	0.018548075
60	0xbcb24b17	-0.021764321
61	0xbd980f23	-0.07424762
62	0xbc450ae1	-0.0120265195
63	0x3d497af9	0.04918954
64	0x3c5a0797	0.013307474
65	0xbd442c39	-0.047893737
66	0x3c0b7ed4	0.008514125
67	0x3d31d387	0.04341462
68	0xbc449d2c	-0.012000363
69	0x3c535156	0.01289781
70	0xbd17b8ae	-0.03704136
71	0xbc98fb84	-0.01867462
72	0x3d0c2c83	0.034222137
73	0xbc43cd04	-0.011950735
74	0x3d2ef425	0.042713303
75	0xbd35c66b	-0.04437868
76	0xbc874a61	-0.016514959
77	0xbc49afb3	-0.012309956
78	0xbadf10d3	-0.0017018564
79	0xbba8721c	-0.005140556
80	0xbcb056ba	-0.02152573
81	0x3d0d91d3	0.034562897
82	0xbc9d3240	-0.019189
83	0x3bc28fc5	0.005937549
84	0xbd1386f4	-0.036017373
85	0xbcdb8e6e	-0.026801314
86	0xbd1c621e	-0.03817951
87	0x3c84e90d	0.016224409
88	0x3ca0601b	0.019577077
89	0xbd2a1b81	-0.041530136
90	0x3cd50faa	0.026008446
91	0x3d03388f	0.03203636
92	0x3d4639bc	0.048394904
93	0xbd649260	-0.055803657
94	0xbc3f452a	-0.011674205
95	0xbc4dcc5a	-0.012560928
96	0xbc329f2b	-0.010902206
97	0x3ca0580a	0.01957323
98	0xbd7b2c1f	-0.061321374
99	0xbd034cde	-0.03205573
100	0xbd888c65	-0.06667403
101	0x3bf9320e	0.007604844
102	0x3cc67772	0.024226878
103	0x3d2c4946	0.042062066
104	0xbd1134db	-0.035450798
105	0xbd1d0ec5	-0.038344163
106	0x3ca049b3	0.019566393
107	0xbd384420	-0.044986844
108	0x3b76199b	0.0037551883
109	0xbd640c4c	-0.05567579
110	0x3d0d6803	0.03452302
111	0xbba41a50	-0.0050080195
112	0xbd3c3410	-0.04594809
113	0xbce5af13	-0.028037583
114	0xbbbc3fe2	-0.00574492
115	0xbd712be4	-0.058879748
116	0x3ca8c161	0.020600023
117	0xb888b32a	-6.518357e-05
118	0xbc7d36c0	-0.015454948
119	0xbc54b52c	-0.012982648
120	0x3b1b1a9c	0.0023666983
121	0x3a89d5f5	0.0010516035
122	0x3c2b3b8a	0.010451207
123	0xbd0c9bad	-0.03432815
124	0xbd13e56e	-0.036107473
125	0xbd4312bc	-0.04762529
126	0xbd57d0f5	-0.05268951
127	0xbcb02ee0	-0.021506727
128	0x3d3ff257	0.046861973
129	0xbd0772b9	-0.033068392
130	0xbc2bcecc	-0.010486316
131	0xbcb565fb	-0.022143355
132	0xbd8e366f	-0.06943976
133	0xbd3095a0	-0.043111444
134	0xbcb83e38	-0.022490606
135	0xbca01a5c	-0.01954382
136	0xbd443146	-0.047898553
137	0x3c0fad9c	0.008769419
138	0x3d53ba67	0.05169144
139	0xbcec6a61	-0.02885932
140	0x3d20b762	0.039237387
141	0xbd069276	-0.03285452
142	0xbd35f005	-0.044418354
143	0x3ccb89f7	0.02484606
144	0x3c495a78	0.012289636
145	0x3d00e8b6	0.03147193
146	0x3cfdc450	0.030977398
147	0xbbabfdb2	-0.0052487487
148	0xbced7c4b	-0.028989932
149	0xbd2ab942	-0.041680582
150	0xbd86f771	-0.065901645
151	0xbce8e024	-0.028427191
152	0x3ca0a582	0.01961017
153	0x3bc32ed7	0.0059565115
154	0xbbf16353	-0.0073665767
155	0xbcb39633	-0.021922207
156	0xbd9d3a7d	-0.076771714
157	0xbc5da4ff	-0.013528108
158	0xbc4fc7d4	-0.01268192
159	0x3cd0547a	0.025430907
160	0x3d257c5f	0.040401813
161	0xbc952ee0	-0.018210828
162	0xbd1b3582	-0.037892826
163	0x3ca50d3e	0.020147916
164	0x3d03f4cf	0.03221589
165	0x3cd49cae	0.025953617
166	0x3d22891b	0.039681535
167	0xbd59753f	-0.05309033
168	0x3c6bfe5c	0.014403906
169	0xbcf2254e	-0.029558804
170	0xbc0fddc5	-0.008780901
171	0xbcf47998	-0.029843137
172	0xbd260ed2	-0.040541478
173	0xbd311315	-0.04323109
174	0xbbfa3d40	-0.007636696
175	0xbd07221d	-0.032991517
176	0xbb62de53	-0.003461738
177	0xbc03d4ae	-0.008046312
178	0x3cb5f295	0.022210399
179	0xbbd5606d	-0.006511739
180	0x3c82980a	0.015941638
181	0x3d0197ad	0.03163879
182	0x3d083d5c	0.03326164
183	0x3c46c99e	0.01213303
184	0xba343b3a	-0.00068752805
185	0xbd9cbb3a	-0.07652898
186	0xbd5ac55f	-0.053410884
187	0xbd7b55b8	-0.061361045
188	0xbd247c43	-0.040157568
189	0xbd45562d	-0.048177887
190	0xbc7b5a6f	-0.015341385
191	0xbc0cddb6	-0.008597782
192	0x3cb53915	0.022121945
193	0x3c9ab987	0.018887294
194	0xbbf1e5d8	-0.007382136
195	0x3d2b9db5	0.041898448
196	0x3c858e8d	0.016303325
197	0x3b0c263b	0.0021385092
198	0x3c73a717	0.01487138
199	0x3c847c46	0.01617254
200	0xbd6d5519	-0.057942484
201	0x3b9c047b	0.0047612763
202	0xbd66eb1d	-0.056376565
203	0x3a11ffd6	0.00055694336
204	0xbd1cf5af	-0.03832024
205	0xbd26abc6	-0.04069116
206	0xba025a34	-0.0004972548
207	0xbd3cfeb3	-0.046141338
208	0x3d3c7027	0.046005394
209	0xbd1ad861	-0.03780401
210	0xbccf40a1	-0.025299372
211	0xbd4dc24b	-0.05023412
212	0x39f4af00	0.00046669692
213	0xbd80cf27	-0.06289511
214	0xbd0da663	-0.034582507
215	0x3cf79150	0.030220658
216	0xbca90f3c	-0.020637147
217	0xbc9db3f1	-0.019250842
218	0xbd222a16	-0.039590918
219	0xbd0a876e	-0.033820562
220	0x3d194375	0.037417848
221	0xbbe46bc2	-0.0069708535
222	0x3bc6faf0	0.0060723945
223	0xbb94b5e8	-0.0045382865
224	0x3ccb465a	0.02481382
225	0x3c89fd69	0.016844468
226	0xbc9fd5ac	-0.019511066
227	0xbd749685	-0.05971386
228	0xbb6fe77d	-0.0036606484
229	0x3cbcc467	0.02304287
230	0x3c82c366	0.015962314
231	0x3cb4994f	0.02204576
232	0xbd0564ce	-0.032566838
233	0x3cdfb31b	0.027307084
234	0xbc9693b0	-0.01838097
235	0xbd126b3c	-0.035746798
236	0xbd47c487	-0.048771407
237	0xbc74a280	-0.014931321
238	0x3aa34b61	0.0012458378
239	0xbd40495a	-0.046944954
240	0xbc63e1c0	-0.013908803
241	0x3d030f80	0.031997204
242	0xbc29c4a9	-0.010361829
243	0x3cd4c02b	0.02597054
244	0xbc6ee9d4	-0.014582116
245	0xbc9345f9	-0.017977702
246	0xbb9969e2	-0.0046818117
247	0xbd520710	-0.051276267
248	0xbca45ffc	-0.0200653
249	0x3ae9c2de	0.0017834564
250	0x3b934029	0.0044937325
251	0x3cc9ab57	0.024617834
252	0x3cec85c3	0.028872376
253	0x3ad49a59	0.0016220316
254	0x3bba0891	0.0056772907
255	0x3d151f55	0.036406834

fc2.bias f4 [300]
0	0xbd946766	-0.07246284
1	0x3c283f67	0.010269023
2	0x3cecff63	0.028930372
3	0x3d2cd0aa	0.042191185
4	0xbd28d8ef	-0.04122251
5	0xbd2c6d71	-0.04209656
6	0x39cbbb95	0.00038858937
7	0x3cc5d75f	0.024150549
8	0x3b9ef591	0.004851051
9	0x3d095e6e	0.03353732
10	0xbd837b9b	-0.0642006
11	0xbcd2b585	-0.02572132
12	0xbc4dab2d	-0.0125530185
13	0xbdd90291	-0.10596193
14	0xbc9ca3e2	-0.019121114
15	0xbd1e6a77	-0.03867575
16	0xbd71171e	-0.058859937
17	0xbcb91afa	-0.022595871
18	0x3c910698	0.01770334
19	0x3c1b5d09	0.0094826305
20	0x3cb8ca78	0.022557482
21	0xbbf5cb71	-0.0075010587
22	0xbcb5b72f	-0.022182075
23	0x3d4c3420	0.049854398
24	0xbab3c3d8	-0.0013714982
25	0xbad16953	-0.0015976824
26	0x3db100f8	0.08642763
27	0xbc7c29b6	-0.015390804
28	0xbce20eed	-0.027595008
29	0x3c20bb8d	0.009810341
30	0x3cc90f5d	0.024543459
31	0x3d0a8a97	0.033823576
32	0x3d311878	0.043236226
33	0x3cfa9d81	0.030592682
34	0x3c174a98	0.009234093
35	0x3c52a64a	0.012857029
36	0xbc085960	-0.00832209
37	0xbd239077	-0.039932694
38	0xbd21d419	-0.039508913
39	0x3b17511a	0.0023089112
40	0xbcaff231	-0.02147779
41	0xbd58ec2e	-0.052959614
42	0xbd1e2fd2	-0.038619824
43	0x3cb93003	0.022605902
44	0xbc98f4bb	-0.018671384
45	0xbcc29a0b	-0.023755094
46	0xbd1ba73a	-0.038001277
47	0xbcac571d	-0.021037633
48	0xbdd038bd	-0.10167072
49	0x3c6ea385	0.014565353
50	0x3c406c97	0.01174464
51	0xbd48c560	-0.049016356
52	0x3cabce3f	0.02097237
53	0x3d3cb17c	0.0460677
54	0xbcc8976d	-0.024486268
55	0x3ce3d7d5	0.027812878
56	0xbcaee773	-0.021350598
57	0xbd0e5b7d	-0.03475522
58	0xbcd99d3a	-0.02656423
59	0x3cdb8ee3	0.026801532
60	0xbd07339c	-0.033008203
61	0xbc828cbc	-0.015936248
62	0xbca3e7a0	-0.020007908
63	0xbc3ac9cb	-0.01140065
64	0xbc813bea	-0.01577564
65	0xbcb8bcec	-0.022551022
66	0xbd8383b0	-0.06421602
67	0xbc9cf2c9	-0.019158738
68	0x3b322854	0.0027184682
69	0x3c9ec3e7	0.019380523
70	0xbb8f39bf	-0.0043708975
71	0xbd601b06	-0.05471327
72	0x3d118680	0.03552866
73	0x3d0517b0	0.032493293
74	0xbd8f59c4	-0.06999543
75	0xbd5c1c5d	-0.053737987
76	0x3972ab90	0.0002314283
77	0x3b5ee680	0.00340119
78	0xbbc7b8fb	-0.0060950494
79	0xbd2a4e7e	-0.041578762
80	0x3c375f91	0.011192218
81	0x3ce40cf8	0.027838215
82	0xbd11a713	-0.035559725
83	0xbd4fe0c0	-0.050751448
84	0xbccaf39f	-0.02477437
85	0xbcbf050e	-0.02331784
86	0xbd8a5012	-0.067535535
87	0xbd212e20	-0.03935063
88	0x3ca98cef	0.020697085
89	0xbc9f7eb1	-0.01946959
90	0x3cc6f94e	0.0242888
91	0x3d7ae453	0.061252903
92	0xbcaa71b0	-0.020806164
93	0xbca7b187	-0.020470394
94	0x3d45b1b5	0.048265178
95	0xbca10b45	-0.019658694
96	0x3d0f083b	0.03491996
97	0xbcaf59ad	-0.021405065
98	0xbdac2d35	-0.0840706
99	0xbd0f258c	-0.034947917
100	0xbbd8da85	-0.0066178464
101	0xbcecbd1b	-0.028898766
102	0xbc97e9f8	-0.018544182
103	0xbd659181	-0.056046966
104	0xbd07924c	-0.033098504
105	0xbd807d6e	-0.06273924
106	0x3cc01423	0.023447102
107	0xbb1d6756	-0.0024017892
108	0xbd4d8dd6	-0.050184093
109	0xbce27b77	-0.027646763
110	0xbd32460c	-0.043523833
111	0xbd6255e0	-0.055257678
112	0x3cd1a26c	0.025590144
113	0x3c6bdee1	0.0143964
114	0xbd7d48ea	-0.061837114
115	0xbd74cad6	-0.059763752
116	0xbcade210	-0.021225959
117	0x3be6ce54	0.007043639
118	0xbaf9fbd4	-0.0019072243
119	0xbd3a83c0	-0.045535803
120	0x3b2bc973	0.0026212602
121	0x3b79e8af	0.0038133075
122	0xbc84dc59	-0.016218351
123	0xbb4e9e2a	-0.0031527379
124	0xbb941b38	-0.0045198463
125	0x3d3b6227	0.045747902
126	0xbb948b20	-0.0045331866
127	0xbc61c2c2	-0.013779344
128	0xbd4f6c36	-0.050640307
129	0xbc61ea86	-0.013788825
130	0xbc9bd68b	-0.0190232
131	0xbce09e98	-0.027419373
132	0xbc647680	-0.013944268
133	0xbd2572be	-0.04039263
134	0xbc8a7b22	-0.016904417
135	0xbc1a3551	-0.009412126
136	0xbcfceb26	-0.030873846
137	0x3a4f6584	0.00079115503
138	0xbd477f10	-0.04870516
139	0xbd143da6	-0.036191605
140	0x3c012869	0.00788317
141	0x3d07c9e3	0.03315152
142	0xbb0aa290	-0.0021154024
143	0x3d19e439	0.037571166
144	0x3ca74212	0.020417247
145	0x3c2ab0e9	0.010418155
146	0xbcf2e917	-0.029652162
147	0x3d024798	0.03180656
148	0xbcded49f	-0.027200995
149	0x3cb0d4d6	0.021585863
150	0xbd2d8a15	-0.042368013
151	0xbd8693ea	-0.06571181
152	0xbc90a1c8	-0.017655268
153	0xbd0596d1	-0.032614533
154	0xbc6f2293	-0.0145956455
155	0x3d25ed60	0.04050958
156	0x3b35237f	0.0027639566
157	0xbd28b348	-0.0411866
158	0x3cd9a466	0.02656765
159	0x3cc9223e	0.02455246
160	0xbc78a8f1	-0.0151769975
161	0xbd30c5e5	-0.043157477
162	0xbd2a3952	-0.04155857
163	0x3c69dbcb	0.014273594
164	0x3cf6fdfa	0.030150402
165	0xbcb5c7ac	-0.022189938
166	0xbc3ef63e	-0.011655388
167	0xbd40c316	-0.04706105
168	0xbbdaf6e7	-0.006682265
169	0xbcd32f91	-0.025779517
170	0xbcf7bac3	-0.030240422
171	0xbd7f6616	-0.062353216
172	0x3c0b79b8	0.008512907
173	0x3d09f5be	0.033681624
174	0x3ccc7f81	0.024963142
175	0x3d331bf3	0.043727826
176	0xbc822049	-0.015884535
177	0xbd89f5dd	-0.06736348
178	0xbd38a74b	-0.045081418
179	0x3d62d636	0.05538007
180	0xbd25d5bc	-0.040487036
181	0x3d0b3d2e	0.033993892
182	0x3d1d87c9	0.038459573
183	0x3d098608	0.033575088
184	0x3d24116c	0.040055677
185	0xbc80514c	-0.015663765
186	0xbd8a2ac6	-0.0674644
187	0xbc4b99b4	-0.012426782
188	0xbcf83f68	-0.030303672
189	0xbd64ed91	-0.055890623
190	0xbd266ce7	-0.0406312
191	0x3c6185c4	0.013764802
192	0xbcf98b16	-0.03046183
193	0xbca40257	-0.020020647
194	0xbd3f93d5	-0.046771843
195	0xbd7d3e45	-0.061826963
196	0x3b9a1969	0.004702736
197	0xbd29d4f2	-0.041462846
198	0x3b129da0	0.0022371784
199	0xbd4cdf05	-0.050017375
200	0xbd15fc72	-0.036617704
201	0x3cb6001f	0.022216855
202	0xbd41d2fa	-0.047320344
203	0x3b27c125	0.00255973
204	0xbc4c75d4	-0.012479264
205	0x3d114fd3	0.035476517
206	0xbc629426	-0.013829267
207	0x3c6ef39d	0.014584449
208	0x3d03358d	0.032033492
209	0x3ce3c812	0.027805362
210	0xbcfc6e0d	-0.030814195
211	0xbd33d292	-0.043901987
212	0xbd803f21	-0.06262041
213	0x3d76f5e7	0.060293104
214	0xbc8a8b82	-0.016912226
215	0x3c12846b	0.008942704
216	0xbc29973b	-0.010350998
217	0x3cce3391	0.025171073
218	0xbb8aa082	-0.00423056
219	0x3d9dcdf8	0.07705301
220	0x3d0c688b	0.034279387
221	0x3cbdd7a9	0.023174124
222	0x3d34d700	0.044150352
223	0x3bc93f1b	0.006141556
224	0xbd303884	-0.043022648
225	0x3c97b5df	0.01851934
226	0xbd9f1d7c	-0.077692956
227	0xbc9c2462	-0.019060317
228	0xbd133aef	-0.035944875
229	0xbd6dd95a	-0.05806861
230	0x3cc89b81	0.024488213
231	0xbd473121	-0.048630837
232	0xbcb49fef	-0.022048919
233	0xbd0dccfa	-0.03461931
234	0x3cbd42db	0.023103168
235	0xbc7bdeac	-0.015372913
236	0x3c53bd64	0.012923572
237	0x3d2affe0	0.041747928
238	0xbcf4e410	-0.029893905
239	0x3b6abbe8	0.0035817567
240	0xbc77fe1b	-0.015136267
241	0xbcc154fa	-0.02360009
242	0xbcc16416	-0.023607295
243	0xbd790e7f	-0.06080484
244	0xbd8630d6	-0.065522835
245	0x3bfd7276	0.007734592
246	0xbcee3ab8	-0.029080734
247	0x3d229d81	0.03970099
248	0xbcaab691	-0.020839008
249	0xbd2af522	-0.041737683
250	0xbceb6698	-0.028735444
251	0x3cd80fd1	0.02637473
252	0xbd123868	-0.035698324
253	0xbd08bcff	-0.033383366
254	0xbd21f9fd	-0.039545048
255	0x3cc5701a	0.024101306

fc3.weight f4 [1, 300]
0	0xbb1d664a	-0.0024017268
1	0xbaf5ee4d	-0.0018763036
2	0x3dab84d1	0.08374942
3	0xba357b20	-0.0006922949
4	0xbae8c211	-0.0017758032
5	0x3cdf4482	0.027254347
6	0x3ce15788	0.027507558
7	0x3d0d01ef	0.034425672
8	0xbc39bebc	-0.0113369785
9	0x3d1ad1b7	0.037797656
10	0xbb3ed46e	-0.0029118317
11	0x3b21b99e	0.0024677287
12	0xba9f8434	-0.0012170137
13	0x3ce8daab	0.028424582
14	0xbc25fc69	-0.01013098
15	0x3b38fc93	0.0028226718
16	0xba779b97	-0.0009445487
17	0xbab7b36b	-0.0014015263
18	0xbaf97911	-0.0019033273
19	0xbaea021c	-0.0017853412
20	0x3c8eff18	0.017455623
21	0x3c82c87c	0.015964739
22	0x3b19077c	0.0023350408
23	0xbcc1729d	-0.023614222
24	0x3d922eef	0.07137858
25	0x38ebb575	0.00011239472
26	0xbd69719e	-0.05699312
27	0xba81b4d3	-0.0009895809
28	0x3b13ecce	0.0022571567
29	0x3b1d9fe4	0.00240516
30	0x391e6649	0.00015106158
31	0x39a383f8	0.00031188107
32	0xbadcbaee	-0.0016840377
33	0xbb65416a	-0.0034981617
34	0xbc0c04c7	-0.008546061
35	0xbcdeb421	-0.027185502
36	0x3a871f1c	0.0010308954
37	0xba931996	-0.0011222835
38	0xbcce6f26	-0.025199484
39	0xbc3840a6	-0.011245882
40	0x3c12a075	0.008949389
41	0x3c299eb2	0.010352777
42	0x3c046b2c	0.008082192
43	0xbb6b7312	-0.0035926742
44	0x3bd1b7f1	0.0064001014
45	0xba3ce2a7	-0.00072054047
46	0x3a58a324	0.0008264056
47	0x3b11860a	0.0022205138
48	0x3ceb3ad0	0.028714567
49	0x3b8c02cf	0.0042727957
50	0x3c251697	0.010076187
51	0x3a39e0cd	0.0007090688
52	0x3ac44df5	0.0014976846
53	0xb8dda4ba	-0.00010568784
54	0x3b4aeff7	0.0030965784
55	0x3cb82a3e	0.02248108
56	0xbd0c15bd	-0.03420042
57	0x3b02cd4d	0.0019958795
58	0xbb61a6e3	-0.0034431748
59	0x3c52e5cc	0.012872171
60	0x3bc665b3	0.006054604
61	0xbb12b251	-0.0022384117
62	0x3c04ceff	0.008105992
63	0x3b885134	0.004160071
64	0x3b8d4c9b	0.0043121106
65	0xbbd24a44	-0.0064175446
66	0x3cfddfa5	0.030990431
67	0x3a806597	0.0009795901
68	0xbb552715	-0.0032524515
69	0x3bfc7468	0.0077043064
70	0x3ab54739	0.001383043
71	0x3c452d4e	0.012034727
72	0x3bca3183	0.006170453
73	0x3b336ef8	0.0027379375
74	0x3c3edb9a	0.011649037
75	0xbbab2403	-0.005222799
76	0x399226db	0.0002787624
77	0x3acf2370	0.0015803408
78	0xbcc720d2	-0.024307642
79	0xbc59766a	-0.013272861
80	0xbb59f0d9	-0.0033255129
81	0xbacca3ac	-0.0015612743
82	0x3ab535a0	0.0013825186
83	0x3bbda8ca	0.0057879435
84	0x3daf4a5f	0.08559107
85	0xba6d1e76	-0.00090453716
86	0xbb6ca2d6	-0.00361078
87	0x3dae3611	0.08506406
88	0xbd1fad42	-0.03898359
89	0xb9e909a3	-0.00044448403
90	0x3b004ff4	0.0019578906
91	0x3c896909	0.016773717
92	0xbae63bd2	-0.0017565435
93	0xbcd58dc6	-0.02606858
94	0x3dd65a18	0.10466403
95	0xbcfdfef8	-0.031005368
96	0x3a99118a	0.0011678201
97	0x3c2395a7	0.00998441
98	0x3c1fcbb9	0.009753161
99	0x3c06ec8d	0.008235109
100	0x3cfc70f3	0.030815577
101	0x3b9197cf	0.004443146
102	0x3d020e41	0.031751875
103	0xbc26603d	-0.010154781
104	0x3cc80a73	0.024419045
105	0x3af80338	0.0018921858
106	0x3acabb36	0.001546717
107	0x3b0262de	0.0019895355
108	0xbb55080c	-0.0032506017
109	0xbb5bdccd	-0.0033548356
110	0xbb598890	-0.003319297
111	0x393c7f76	0.0001797656
112	0x3aa773cf	0.0012775603
113	0x3d33923f	0.043840643
114	0x3c1495b5	0.009068896
115	0x3d831295	0.064000286
116	0x3b2486cf	0.0025104766
117	0xbad872dd	-0.0016513724
118	0xbd1edcd2	-0.03878481
119	0x3c248027	0.0100403195
120	0x3b0d0075	0.0021515165
121	0xbacd4678	-0.001566126
122	0x3b0ff17b	0.0021964002
123	0xbb34abcd	-0.0027568222
124	0x3d78a98e	0.060708575
125	0x3b143c3a	0.0022618906
126	0xbae06d04	-0.0017122333
127	0x3c51b36c	0.012799125
128	0x3a774a92	0.0009433414
129	0xbb9dc81c	-0.0048151147
130	0x3cec7d85	0.028868446
131	0xbc6c7b5c	-0.014433708
132	0xbb1f898c	-0.002434346
133	0x3c3a2047	0.011360235
134	0x3d656273	0.05600209
135	0x3bc33b95	0.0059580305
136	0x3a994fbd	0.0011696737
137	0xbd3e3d66	-0.046445273
138	0x3c356a0d	0.011072648
139	0xbae9ef32	-0.0017847775
140	0xbc248d6d	-0.010043484
141	0x3a341dec	0.0006870914
142	0x3c169890	0.009191647
143	0x39e508aa	0.0004368474
144	0x3b415030	0.0029497258
145	0x3901d0cf	0.00012380186
146	0x3af528dd	0.0018704195
147	0x3b20c667	0.002453232
148	0xbc718824	-0.014741931
149	0xbb5bacef	-0.0033519825
150	0x3ace1b68	0.001572472
151	0x3cdf4c17	0.027257962
152	0xbb632c37	-0.0034663805
153	0xbad76aa9	-0.0016434985
154	0xb9aeb4ca	-0.00033322565
155	0xbb228e58	-0.0024804082
156	0x3b8a8c90	0.004228182
157	0xbb2b7c84	-0.0026166746
158	0xbb030d80	-0.001999706
159	0x3bf71123	0.0075398847
160	0xba08e475	-0.0005222031
161	0x3d549ec8	0.051909238
162	0xba8ad516	-0.0010592069
163	0x3c216d8a	0.009852776
164	0x3b130b8c	0.0022437302
165	0xbb3c4250	-0.0028726049
166	0xba10afb8	-0.0005519348
167	0x3bc11b01	0.0058931117
168	0x3888906b	6.511885e-05
169	0x3bcea038	0.0063057207
170	0xbb1b19a8	-0.0023666415
171	0x3d686241	0.056734327
172	0x3c5b1e82	0.013373973
173	0xbc1e17bd	-0.009649214
174	0x3be9f1dc	0.0071394276
175	0x3c26a986	0.0101722535
176	0x39163ee1	0.00014328539
177	0x3c6cfd47	0.014464683
178	0x3d331bc2	0.043727644
179	0x3c5546b1	0.013017342
180	0xbb244e05	-0.0025070917
181	0x3a26ae95	0.0006358412
182	0xbb013898	-0.001971757
183	0xba83bb55	-0.0010050336
184	0xb89bf230	-7.436087e-05
185	0x3d7c5d44	0.061612383
186	0xbc808d8a	-0.015692491
187	0xbaa9149f	-0.0012899822
188	0x3b73b144	0.0037184516
189	0x3b463dc5	0.003024922
190	0xbaefc2cc	-0.0018292307
191	0xbafb440b	-0.0019170059
192	0x3c47d878	0.012197606
193	0xba35c166	-0.00069334207
194	0x3a87984c	0.0010345071
195	0x3c4a8b20	0.012362272
196	0x3b8644ec	0.0040975716
197	0xbb5f704b	-0.0034094031
198	0x3c9fe148	0.019516602
199	0x3b8bb64c	0.004263675
200	0x3c730484	0.01483262
201	0x3ba3aa6e	0.004994682
202	0xbb9646c7	-0.004586074
203	0x3c26793e	0.010160742
204	0x3c587720	0.013211995
205	0xbae16d8b	-0.0017198784
206	0xba31af1b	-0.0006778107
207	0xbad7dcd9	-0.0016469016
208	0xbaf4635a	-0.0018645332
209	0x38a9f0e0	8.1034144e-05
210	0xbacbd0f2	-0.0015549941
211	0xbbc6b774	-0.00606435
212	0xbb623042	-0.0034513627
213	0xbca8fb97	-0.02062778
214	0x3c3e5667	0.01161728
215	0x3bf1d4fa	0.007380125
216	0x3bf4c712	0.00747002
217	0x3c1c289e	0.009531168
218	0x3ce98b7e	0.028508898
219	0x3d4ed491	0.050495688
220	0x39a7fcf0	0.00032041175
221	0xbae03014	-0.0017104172
222	0x3cbeaac9	0.023274796
223	0xbac95fe5	-0.0015363662
224	0x3b7130c8	0.0036802758
225	0xbaf1b359	-0.0018440291
226	0xbce0e6b7	-0.027453763
227	0xbc0529e6	-0.008127665
228	0x3b525ff6	0.0032100654
229	0x3c348512	0.011018055
230	0xbb264dbc	-0.0025375923
231	0x3a0ccf54	0.00053714705
232	0x3d321fb4	0.043487266
233	0x3b170712	0.0023044986
234	0xbbe1521e	-0.006876244
235	0x3b1f45b0	0.0024303012
236	0xbcb27d7d	-0.021788353
237	0x3e01367c	0.1261844
238	0x39d3bb40	0.00040384568
239	0x3b57b931	0.003291678
240	0xbb445982	-0.0029960577
241	0xbcbd720a	-0.023125667
242	0x3ab02f79	0.0013441882
243	0x3ce7621e	0.028245028
244	0x3cd2f108	0.025749698
245	0xbc519f04	-0.01279426
246	0xbad43119	-0.0016188949
247	0xbbd0c91b	-0.00637163
248	0x3c2cd09b	0.010547782
249	0xbba51c1a	-0.0050387504
250	0xbb1765de	-0.002310149
251	0xb9a817bf	-0.0003206115
252	0x3bd84a80	0.006600678
253	0x3ad98fb1	0.001659861
254	0x3da4136e	0.080115184
255	0xbb17dccf	-0.0023172384
