DDPG/weights/critic.pth (torch, 492311 bytes, 5 tensors)

fc1.weight f4 [400, 4]
000000 3d c0 b5 3c e2 53 b6 bc 9d 5b 2d 3e 27 74 45 3b
       0.022186393 -0.022256795 0.16929479 0.0030129047
000010 82 3e 6e be bc 09 ae bd 14 b6 15 be db 10 63 bd
       -0.23266032 -0.084979504 -0.14620239 -0.055435997
000020 a8 60 0c be 3a a1 a6 bd 74 c2 25 bc 26 9d 61 bc
       -0.13708746 -0.0813622 -0.010117162 -0.013770377
000030 7e 58 80 bc 48 0f 65 bc 20 83 77 be 0a 69 1f 3b
       -0.015667196 -0.013980694 -0.24171114 0.0024324083
000040 9c 61 c4 3c af 96 15 bc 3c db 70 3e 23 eb c4 ba
       0.023972325 -0.009130164 0.23521131 -0.001502369
000050 9a f0 35 3e 5e 94 1b bf 33 19 1f 3c 1a b9 92 3b
       0.17767563 -0.60773265 0.009710598 0.004477632
000060 f6 76 13 be d2 08 87 bd e3 a2 70 be 7e e7 e7 3b
       -0.14400849 -0.06593479 -0.23499636 0.0070771566
000070 39 d1 30 3d e4 8b fd 3c 4c 49 39 be e1 12 20 bc
       0.04316828 0.030950494 -0.18094367 -0.009770126
000080 e3 20 cb bd 9f 23 3e bd 85 94 39 be 88 fb 8b 3b
       -0.09918382 -0.04642069 -0.18123062 0.004271928
000090 7d 5c af 3d 30 12 0b bd eb 4d 73 3e eb 48 07 bc
       0.085625626 -0.03395289 0.23760192 -0.008257131
0000a0 71 42 41 3b ec b7 34 bc 39 ff 92 3d 31 99 fe ba
       0.0029489065 -0.0110301785 0.07177586 -0.0019424317
0000b0 d7 c4 70 3d 92 5d f9 3c 32 65 a6 be e7 2a 83 bb
       0.05878147 0.030440126 -0.3249908 -0.004002917
0000c0 4f ee 9c be b7 d4 f2 3d 43 ed 2f 3e 99 23 71 3c
       -0.30650565 0.118569784 0.17180352 0.01471796
0000d0 c1 b1 87 bb e4 be a6 bb bf 10 7c be 25 6f dd ba
       -0.004141063 -0.005088674 -0.24615763 -0.0016894086
0000e0 c0 4d 1b 3c 13 da 09 bc 97 e9 b3 3e 56 13 45 3a
       0.009478986 -0.008413809 0.35139152 0.0007517835
0000f0 4d 2a 07 3d fe bc 4c bc 31 0f 02 3e da 60 e4 b9
       0.032999326 -0.012496231 0.12701108 -0.0004355971
000100 e4 b4 db bd ff 38 09 bd d0 eb 02 be 0a 91 3e bc
       -0.107278615 -0.03350162 -0.12785268 -0.01163126
000110 75 0a 08 3e 72 d2 29 3f aa 1b 1f bc 29 ed 26 bc
       0.13285239 0.6633674 -0.0097111855 -0.010188379
000120 e8 e6 38 bc ee f6 0d 3c 8f e2 69 3e bd 03 a4 bc
       -0.011285521 0.00866483 0.22840331 -0.020021314
000130 8f b6 cd bd 0f 4b af 3c ec 28 23 3e 3f e4 11 3d
       -0.10044586 0.021398095 0.15933579 0.035618063
000140 02 34 9b 3c b3 1d 99 3b ee b1 38 3e ef 8d 1a bc
       0.018945698 0.00467273 0.18036625 -0.009433254
000150 c6 56 87 bd dc 1d 11 3d 66 df 1f 3e 6b 5f 16 bc
       -0.066083476 0.035428867 0.15612563 -0.009178023
000160 51 2d 83 bd 64 2b d3 bc dc 48 60 be 0a 75 fc bb
       -0.06405128 -0.025777526 -0.21902794 -0.007704382
000170 2b 35 1f be d9 ff 69 3d 22 e4 85 3e eb 11 5c 3c
       -0.15547626 0.05712876 0.26150614 0.013432006
000180 c2 7f 0e be f3 55 78 3d 29 5d 8f 3e ba 44 8b bc
       -0.13915923 0.060628843 0.28000763 -0.017000545
000190 24 d7 03 bd 53 05 21 bd 97 1b 90 be 3f 0c 10 3b
       -0.032187596 -0.03931172 -0.2814605 0.0021979955
0001a0 73 15 44 be 35 6a 84 3d a9 10 d7 3d 42 95 b6 bb
       -0.19148807 0.0646557 0.105012245 -0.005571992
0001b0 56 ff 1c be 7b f3 83 bd d0 2c 6f be b1 e5 5a 3c
       -0.15331778 -0.064429246 -0.23356938 0.013360427
0001c0 1d 59 33 be be 0a 23 3d 24 c1 9c 3e 4f 92 0b 3d
       -0.17514463 0.039805166 0.30616105 0.034075078
0001d0 2b 38 bc 3d 6b 11 b8 3c c8 ea 90 be fc 75 73 3c
       0.09190401 0.022469243 -0.28304124 0.014859673
0001e0 6e 54 04 bb 82 1a c6 bb aa 78 8d be 3d dd 88 3b
       -0.0020191926 -0.0060456404 -0.27631122 0.0041767643
0001f0 40 da b6 bb 21 99 5e bc 84 83 62 bd 13 bd 0c bc
       -0.0055802166 -0.013586313 -0.055301204 -0.008590001
000200 bb 1c c4 3c 3e 3e 5a bc 5a 26 97 3e 65 44 3b 3c
       0.023939481 -0.013320504 0.29521447 0.011429881
000210 db b2 15 bd fc 6d 2e 3c 6a 60 a1 3e 43 09 bd 3b
       -0.036547523 0.0106463395 0.3151887 0.0057689263
000220 bc 7b 8b 3c 79 43 30 3b 9f 01 67 bd c2 41 ef 3b
       0.017026775 0.0026895686 -0.05639803 0.00730154
000230 20 2f 89 bd 72 25 78 3d 2f 45 58 3e c4 a6 bd bc
       -0.066984415 0.060582586 0.21120141 -0.02315081
000240 58 c4 06 bd d5 8f 56 3c 3d 44 ff 3d 5c 01 62 3c
       -0.03290209 0.013095816 0.12464187 0.013794269
000250 eb f8 8e 3d 76 44 ca bc a6 f0 ae 3e bc 90 51 3b
       0.06981071 -0.024690848 0.34167975 0.0031977138
000260 58 51 0e bb e9 64 ba 3a 70 95 cf bd f3 fa 61 bb
       -0.0021715965 0.0014220747 -0.10135925 -0.0034481853
000270 c2 99 45 3b 72 a9 92 3b 91 e9 10 3e 0e 12 79 3a
       0.0030151461 0.004475766 0.14151599 0.00095012865
000280 06 e5 a2 bd 88 0f 9a 3c 03 b4 88 3e f2 d5 00 3d
       -0.07953839 0.018806234 0.26699838 0.031454034
000290 f7 59 2d be 3b 3b 65 3d e1 e4 09 3e fe 3b 89 bc
       -0.1692885 0.05596469 0.13466217 -0.01675224
0002a0 f8 da 76 bd 40 4a 19 3d 6e 0c c4 3d cb f2 a0 bc
       -0.06026742 0.037424326 0.09572683 -0.019647023
0002b0 76 19 7a bc 23 23 07 bc 82 0b 24 be 72 17 bc bb
       -0.015264859 -0.008248123 -0.16020015 -0.0057400996
0002c0 c6 53 98 3d dd d7 22 3d 8a b0 38 be 49 b9 87 bb
       0.074378535 0.039756645 -0.18036094 -0.0041419608
0002d0 42 d7 dc be 6e 9c 9b be ca 3e 0f bd 7d 63 94 3c
       -0.4313298 -0.30392784 -0.03497199 0.018113846
0002e0 e7 b4 50 be 3c 9c b4 3c a6 e2 9b bd 82 05 c0 3b
       -0.20381509 0.022047155 -0.07611589 0.0058600316
0002f0 bf 9f 51 3d f9 f6 81 3c 2b 24 e0 bd 48 9d cf 3a
       0.051177736 0.015864836 -0.109443985 0.001583972
000300 77 28 c2 3c 67 6b 3d 3c 4f 66 8c 3d f6 8e c4 ba
       0.023700936 0.011561251 0.06855451 -0.0014996219
000310 5b 63 91 3a 23 d0 0b 3c ba d1 99 be 31 a4 a7 ba
       0.0011092232 0.00853351 -0.3004282 -0.0012790022
000320 65 66 5f 3d 2e 82 04 3d f7 54 91 be 29 a5 13 bc
       0.05454101 0.03235071 -0.28385136 -0.009011545
000330 72 af ae 3d 9d 07 90 3c aa 82 91 be bf 82 5a 3c
       0.08529557 0.017581755 -0.2842 0.013336836
000340 9c 4a db bd 35 ac 45 bd 3c 08 ae be 75 e9 75 3b
       -0.1070759 -0.048259933 -0.33990657 0.0037523184
000350 50 80 9e 3e 45 d7 39 bf ed 6f 38 3c 98 b9 c6 3b
       0.3095727 -0.725941 0.011257154 0.006064605
000360 50 92 88 3d 4d d6 24 3d f1 6f a8 be 11 d1 e5 bb
       0.06668532 0.040243436 -0.32897905 -0.007013448
000370 7f 60 6a bb 11 fe c4 ba 51 78 40 bb 8a c4 82 39
       -0.0035763083 -0.0015029331 -0.002936859 0.00024941965
000380 e3 46 00 3c 83 24 5a 3b d9 29 ae 3e ed c2 47 bb
       0.007829401 0.0033285923 0.34016302 -0.0030481175
000390 f4 6a 9f be 9d c4 8a bd b5 04 18 be c5 5f dd bc
       -0.31136286 -0.06775782 -0.14845546 -0.027023206
0003a0 76 2a ad be 18 18 c5 bd 16 9c 2e be ee 9f c4 bc
       -0.33821458 -0.09623736 -0.1705173 -0.024002042
0003b0 66 30 c4 bd 9f d4 68 bd 3d 41 8a be f3 f6 c5 ba
       -0.09579544 -0.056843396 -0.27002898 -0.0015103504
0003c0 8a 13 27 bc d8 50 6e 3b 23 85 f3 3d a1 2d 4f bb
       -0.01019753 0.0036364105 0.11890628 -0.003161289
0003d0 16 60 7a be 56 22 17 bd c6 6e 46 3d 37 39 b2 bc
       -0.24450716 -0.03689798 0.048445486 -0.021755798
0003e0 bc 0a 03 be c6 00 1d bd c4 49 55 be da 09 ad bc
       -0.12797064 -0.038330816 -0.2082892 -0.021122862
0003f0 d2 5a ae bd 9d d5 54 bd 4c 94 b0 be 67 fc 58 3b
       -0.08513416 -0.05196153 -0.34488142 0.0033109428

fc1.bias f4 [400]
000000 3c 9e a2 bd 48 f8 09 be 47 19 6f 3e 56 f8 22 3d
       -0.07940337 -0.13473618 0.23349486 0.039787613
000010 3b 5b b8 3d e7 a5 2b 3e ca 53 14 be 65 85 d9 bd
       0.09001776 0.16762505 -0.14485088 -0.10621146
000020 68 a5 42 bc 30 c5 fc bd e5 d7 10 3d 6e 4e 1c 3e
       -0.011880256 -0.12342298 0.035362143 0.15264294
000030 af e1 ad 3e 23 b3 f3 3c 25 8a f2 3d bb 7f b5 bd
       0.33961245 0.029748505 0.11842755 -0.08862253
000040 df 5f ff 3d 16 46 08 3e da 81 16 3e f3 98 94 bd
       0.12469458 0.13307986 0.14697972 -0.07255735
000050 0a 1f 2a 3e 91 f7 05 be ca 66 0c be cb cb 0b be
       0.16613403 -0.1308272 -0.13711086 -0.1365196
000060 2f 0c 07 be 1e ac 3d bd 45 e7 87 3e 7e 85 fe bc
       -0.13188241 -0.046306722 0.26543632 -0.031069513
000070 79 d4 a4 3c 00 05 02 bd c8 34 aa bc 1d d6 1e 3e
       0.020120846 -0.03174305 -0.020777121 0.15511365
000080 bd be 02 3c 9b d0 1f 3d 88 97 92 bc 3e 17 3b 3e
       0.007980046 0.0390173 -0.017894521 0.18270585
000090 87 4c 0c 3d bc 72 93 bc 8d 64 85 bd ee ff c8 bd
       0.03425267 -0.017999046 -0.06513319 -0.0981444
0000a0 fd 72 6a 3d 42 40 31 be 5c 84 84 3d f2 bd 05 3e
       0.057238568 -0.17309669 0.06470558 0.1306074
0000b0 68 9b 3e bd 61 7e 79 bd 31 36 e8 3d 01 c6 1f bd
       -0.046534926 -0.06091154 0.11338461 -0.03900719
0000c0 f7 44 7e 3d c8 23 87 3d 18 05 fb bd 2d 33 02 bd
       0.06207749 0.065986216 -0.12256831 -0.031787086
0000d0 21 0d e7 3d 0b 60 98 3e 69 f2 18 be 3d 08 41 3c
       0.11281801 0.29760775 -0.14936222 0.011781749
0000e0 44 77 4a bd 41 60 b5 3e 0d 6c c0 3e 82 66 d7 bd
       -0.049430147 0.35424998 0.37582436 -0.10517599
0000f0 4b e9 2e bb 19 62 b1 3e 42 31 05 3d 3e d1 cc bd
       -0.0026689346 0.34645155 0.03251768 -0.10000847
000100 cd 4a 96 39 77 6c 01 bd a0 b9 bd bd 97 cc f2 3d
       0.0002866596 -0.03159758 -0.09263921 0.11855429
000110 4a 54 77 3e f8 e5 86 bd 1e f6 96 3d 50 05 16 3e
       0.24153247 -0.06586832 0.07371162 0.14650464
000120 20 74 4b bd a8 dd 68 3e d8 e4 3e 3e e1 33 ef 3c
       -0.049671292 0.22740805 0.18641984 0.029199542
000130 d0 0f 0e 3e 58 72 2d 3c a9 49 b6 bc f0 88 77 3e
       0.1387322 0.010586344 -0.02225192 0.24173331
000140 c0 9b 11 bd df 7a 31 bb 51 c9 f5 3d b7 c1 81 bb
       -0.035548925 -0.0027081294 0.12001289 -0.00395986
000150 bc 15 fd bb 28 29 2d 3c f3 98 9d 3e dd b6 1e be
       -0.007723538 0.010568894 0.30780753 -0.15499444
000160 84 e6 fa 3d 4c 23 1b be 5b ae 2f 3e 90 8a 9a 3d
       0.122509986 -0.15150183 0.17156355 0.0754596
000170 e3 72 2a bd 1a ca 86 3d 24 00 b0 3d 2a 0e d1 3d
       -0.04161347 0.065815166 0.08593777 0.1020778
000180 5f 4b aa bd 91 65 48 3d a7 d2 d1 bd 07 68 c1 bb
       -0.08315157 0.048924986 -0.10245257 -0.0059022936
000190 9f 22 14 3c 9c 92 05 bd 96 c6 dd 3b ab c2 3d ba
       0.009041457 -0.03261052 0.006768058 -0.00072387856
0001a0 3a b5 c7 3c 6d 59 7c bd 97 81 5f bd 52 4a 8e 3e
       0.024378408 -0.06160872 -0.054566946 0.27791077
0001b0 31 cc 0d 3e 59 54 52 be 10 b6 05 3d 15 88 10 3e
       0.13847424 -0.20539989 0.03264433 0.14114411
0001c0 3e 3e 1b bd b1 9d 0b 3d b2 50 18 3e 86 67 88 bc
       -0.037901156 0.034085933 0.14874533 -0.016650926
0001d0 8a 75 64 3e 86 e6 25 be 31 8e 2e 3d 03 e4 d0 3d
       0.22310463 -0.16201219 0.042616073 0.1019974
0001e0 08 b7 c6 bd 22 21 8f 3c 19 68 7a 3e 40 63 5b be
       -0.09702879 0.017471854 0.24453773 -0.2142458
0001f0 27 00 93 3e c4 a3 d9 bc 13 01 4b 3e a4 87 1b be
       0.28711054 -0.026567347 0.19824629 -0.15188462
000200 4d 81 2f bd ff b9 10 3e eb d2 85 3d 1b ce a8 bd
       -0.04284792 0.14133452 0.0653437 -0.082424365
000210 11 f7 01 3e 20 2b 57 3e 53 a9 cb bc b2 34 9a bd
       0.12691905 0.21012545 -0.024861014 -0.07529582
000220 00 27 92 3e 81 bf 5f 3e f2 bb a8 3d a4 4c 01 3d
       0.2854538 0.21850397 0.08238973 0.03156723
000230 f5 cc 4b 3d 86 bf 1b bb 24 45 07 be f0 1b 8a bd
       0.04975601 -0.002376528 -0.13209969 -0.0674361
000240 a8 d7 16 3d 0d 55 9f bc 89 bd 7e bd 19 c5 b5 bd
       0.03682676 -0.019449735 -0.062192474 -0.08875484
000250 e3 f4 80 3c 3c dd 19 bd 47 c9 c5 bc 8d ab 09 be
       0.015741771 -0.0375645 -0.024143828 -0.13444348
000260 e6 27 d2 bd df ce 92 3d 8e 58 11 3e 0f 5f 6a 3d
       -0.10261516 0.07168364 0.14193937 0.05721956
000270 89 ad 15 3e 49 bb 72 3d a9 87 52 3e 7c ee 75 3d
       0.1461698 0.05926064 0.20559563 0.06004189
000280 c8 af 50 bd d7 df 8e bd b2 50 6e bc dc 27 cf bd
       -0.050948888 -0.06976288 -0.014545606 -0.101150244
000290 f8 f0 bd 3d 73 62 70 3e 47 84 4e 3e 75 b3 1c bd
       0.09274477 0.23475055 0.20167647 -0.03825708
0002a0 83 05 88 bc 89 d6 44 3c 58 aa ec 38 7c 30 25 3e
       -0.01660419 0.01201404 0.00011285086 0.16131777
0002b0 99 be 06 3e d6 b5 8d 3e 28 08 cd 3d 7b 56 4a 3d
       0.13158645 0.27677792 0.10011321 0.04939888
0002c0 7f b9 04 3d f7 ab 1e be a0 50 10 3c 01 50 f2 bd
       0.032403465 -0.15495287 0.008808285 -0.11831666
0002d0 f4 16 a6 bd f7 d0 5f bd 7a 5d 40 3e 32 b2 04 3d
       -0.08109847 -0.054642644 0.18785658 0.032396503
0002e0 5a 14 60 3e 72 30 d5 bd 99 66 c9 3e 10 24 65 3e
       0.21882764 -0.10409631 0.39336088 0.22377038
0002f0 89 d9 3e 3d 64 f1 8f 3e 64 53 48 be 26 57 8c bd
       0.046594176 0.28113854 -0.19563061 -0.0685256
000300 03 ee bb bd f4 c2 9c bc f3 8e 4c 3e 41 f6 aa 3e
       -0.091762565 -0.01913593 0.19976406 0.33391002
000310 19 a4 aa bd af d2 0b bd 90 2f 61 3e 62 61 b3 3d
       -0.083320804 -0.03413647 0.219908 0.08758809
000320 20 e9 bd bc 69 b9 9f 3e e3 6a 68 bc ca 71 a2 bd
       -0.023182452 0.31196144 -0.01418564 -0.0793186
000330 72 49 93 3c 94 d4 f9 3c b4 91 92 3d ed a0 c3 bd
       0.017979357 0.030496873 0.07156697 -0.095521785
000340 c3 89 32 bd 00 35 e7 bd 1b b3 55 bd c7 53 08 3c
       -0.04358841 -0.11289406 -0.05217276 0.008320755
000350 4b fc 59 bd 3d 59 e7 bd b8 94 16 3e f9 0c 81 b8
       -0.05321912 -0.11296318 0.14705169 -6.153616e-05
000360 6b f6 bb bd 0a de 26 bd e4 3e 6e 3e ec 70 81 bd
       -0.0917786 -0.040739097 0.23266178 -0.06320366
000370 29 70 ae bb 5e 6a 5a bc 5d 6d 5a bc 9e 62 9b bd
       -0.005323429 -0.013331024 -0.013331738 -0.07587169
000380 af 74 40 3e 8e 0d 74 3e ba 32 58 3e 25 66 49 3c
       0.18794511 0.23833296 0.211131 0.01229242
000390 12 77 6f bc 89 5f 20 3c c4 92 c7 bd c0 ab 04 3e
       -0.014615791 0.009788402 -0.0974479 0.12956142
0003a0 65 bf 9b 3d 32 6b 33 be 16 48 23 bd 81 ef b2 bd
       0.07604865 -0.1752136 -0.03986367 -0.08737088
0003b0 8b 32 b7 bc f8 49 20 3e 7f 84 84 bd ca f1 0b be
       -0.022362968 0.15653217 -0.06470584 -0.13666454
0003c0 9f d5 6a bd 9a ad b5 bd a4 b6 d4 3d 3a d0 c3 bb
       -0.05733263 -0.088710025 0.103863984 -0.0059757503
0003d0 dc 22 95 3d ae 06 1b bd 32 bd 96 bd 95 ef 96 bd
       0.072820395 -0.037848167 -0.07360305 -0.073699154
0003e0 2c 53 c0 3d a6 6f f8 3d 31 64 3c bd c9 b7 85 3e
       0.09390864 0.1213067 -0.045993987 0.2611678
0003f0 90 5e 85 bd 5b fb e7 3d 1f 8f 93 bd c8 16 8a bd
       -0.06512177 0.11327239 -0.072050326 -0.067426264

fc2.weight f4 [300, 400]
000000 d0 ca 17 b9 b7 af 42 3a f4 fd e6 3a 84 58 be 39
       -0.00014476036 0.0007426696 0.0017623291 0.00036305573
000010 84 aa 08 3a 56 04 c2 ba 71 77 e0 39 40 58 a4 b8
       0.0005213397 -0.0014802318 0.000428136 -7.836567e-05
000020 9a 97 c8 39 89 cc af b9 be 35 20 39 82 a9 26 3a
       0.00038259925 -0.00033530992 0.0001527881 0.0006357656
000030 92 0d 44 3b fc 42 b0 39 ba 53 4b 3a 3a 46 17 b9
       0.0029915315 0.00033619243 0.00077563117 -0.00014426644
000040 c8 cd 73 3a 41 68 a0 ba 70 b8 40 3a 79 13 a1 39
       0.0009300378 -0.0012238101 0.0007351702 0.0003072282
000050 45 b9 32 3a d2 86 bb 37 12 eb fa 38 65 0c eb 39
       0.00068177684 2.2354918e-05 0.00011964714 0.00044831928
000060 04 f4 af 39 a4 e3 c0 39 cf 0f 0f 3b 8a c8 08 3a
       0.00033560407 0.000367907 0.002182949 0.0005217871
000070 9b c4 47 3a f8 b5 97 38 36 70 ba 39 e0 da 8b 3a
       0.0007620544 7.2341354e-05 0.00035560288 0.0010670088
000080 27 ef 97 39 46 30 1c 3a bf aa 90 38 6e 6c 8d 3a
       0.00028979147 0.0005958121 6.898259e-05 0.0010789761
000090 21 3c 95 39 21 cf 7f 38 a8 aa 59 37 8e 6c e6 b8
       0.00028464294 6.098964e-05 1.2973942e-05 -0.000109874745
0000a0 1e 7b 1f 3a 09 8b cd 39 f4 2b 09 3a c6 6f 31 3a
       0.00060837145 0.00039204236 0.0005232685 0.00067686697
0000b0 04 e8 60 37 e6 f0 08 3b 54 e5 9c 3a aa 48 8f 38
       1.3405461e-05 0.002089554 0.00119702 6.832306e-05
0000c0 26 df 8c 39 d5 66 e9 39 14 fe 03 b9 ba 44 cd 38
       0.0002686914 0.0004451784 -0.00012587785 9.787963e-05
0000d0 09 87 51 3a f9 5a df ba 22 fb 50 b9 79 5f 0e 39
       0.0007992839 -0.0017040662 -0.0001992998 0.00013577742
0000e0 22 0c 1b 39 0b ee 41 3b e3 a9 4d 3b 70 b3 d6 39
       0.00014786472 0.0029591348 0.0031381778 0.00040950952
0000f0 80 9e 2b 39 6d 45 34 3b bf 70 18 3a b1 ca ee 39
       0.00016366877 0.0027507201 0.00058151403 0.00045545914
000100 c3 db 1e 3a fd 3f fa 3a 16 0c cd 39 09 e1 28 3a
       0.0006059969 0.0019092556 0.00039109652 0.0006442224
000110 3a 4f 2c 3b 15 11 af 38 15 ca 02 3a cd 84 97 3a
       0.002629234 8.347832e-05 0.0004989219 0.0011559963
000120 3a e5 67 39 02 24 3c 3b 98 f5 4c 3a f8 47 bf 39
       0.0002211527 0.0028707986 0.0007818579 0.0003648398
000130 c3 c7 c8 3a 3d 23 2e 39 18 60 ed 38 73 c2 c0 3a
       0.0015318323 0.0001660706 0.000113189395 0.0014706388
000140 d8 d6 a8 37 c6 fb 9e 39 ae 17 10 3a 40 5f b5 39
       2.0127205e-05 0.00030323694 0.00054966926 0.00034593977
000150 50 4f b9 39 5e 3f 25 39 36 d7 27 3b 2f 90 58 b9
       0.00035345042 0.00015759232 0.0025610453 -0.00020653078
000160 15 d6 39 3a 7c c6 01 3a a4 55 db 3a 76 87 06 3a
       0.00070890906 0.0004950536 0.0016733897 0.00051318796
000170 8f 7a 22 39 49 08 11 3a 31 f0 93 3a 41 52 4e 3a
       0.0001549518 0.00055325456 0.0011286793 0.0007870533
000180 4e 05 af 38 33 65 ce 39 19 e3 e6 b8 2d 82 ee 37
       8.345638e-05 0.0003936678 -0.00011009555 2.8432429e-05
000190 b9 c2 ad 39 a8 69 67 38 9f 04 22 39 8b e3 54 3a
       0.0003314221 5.5173092e-05 0.00015451245 0.0008121065
0001a0 04 b8 ff 39 77 66 42 39 07 b5 c6 b8 56 08 36 3b
       0.00048774492 0.00018539453 -9.475095e-05 0.0027775965
0001b0 a2 66 9c 3a d0 1d 08 ba 4e 43 c2 39 23 4e f1 b8
       0.0011932442 -0.00051924307 0.0003705271 -0.000115063296
0001c0 b8 d7 c0 38 7a 4d c8 39 a3 4e 22 3a d0 b2 88 39
       9.195454e-05 0.00038204697 0.00061915274 0.00026073167
0001d0 0a 17 13 3b 35 a0 a1 b9 b3 c4 86 3a 3e ae d6 39
       0.0022444152 -0.00030827677 0.001028201 0.0004094708
0001e0 76 b0 8f 39 59 11 c1 39 d2 db 01 3b 92 1d a7 3a
       0.0002740656 0.00036824754 0.001981486 0.0012749902
0001f0 f3 97 36 3b b4 70 56 3a 34 7a 67 3a b7 4d f7 39
       0.0027861565 0.0008180246 0.00088301604 0.00047169413
000200 02 d5 7d 37 0a 9f 23 3a 21 c6 c5 39 53 5b db b8
       1.512957e-05 0.0006241655 0.00037722386 -0.00010459744
000210 c9 5a 12 3a 24 1a 9d 3a 47 02 c6 37 74 01 9a b8
       0.0005582986 0.001198594 2.36045e-05 -7.343563e-05
000220 27 d6 f0 3a c0 5c a6 3a 11 1e 49 3a bf fd 6c 39
       0.0018374369 0.0012692437 0.0007672022 0.00022601242
000230 98 4b 14 39 2c ee 81 39 73 8e 0d b9 f8 d0 d7 b8
       0.00014142541 0.0002478225 -0.00013499874 -0.000102909224
000240 c8 12 b4 ba 1d d2 45 38 d1 21 e8 b6 56 ad 5d b8
       -0.0013738507 4.7164143e-05 -6.9180755e-06 -5.2851938e-05
000250 65 ec 80 3a 13 4a 69 b8 03 7f e4 38 17 4c 25 3a
       0.0009836076 -5.5620516e-05 0.00010895545 0.0006305589
000260 a5 6e ea 39 59 72 cb 39 d7 08 93 3a 7e fd db 39
       0.00044714395 0.00038804373 0.0011217844 0.00041959801
000270 ea 11 a7 3a d9 28 82 3a 03 a5 b1 ba 46 70 1a 3a
       0.0012746428 0.0009930386 -0.0013553206 0.0005891364
000280 64 38 a1 3a 7c 71 f2 b8 03 52 19 b8 64 1a c7 39
       0.0012300131 -0.00011560597 -3.6554422e-05 0.000379759
000290 70 04 05 3a 0b fb 18 3b a4 78 62 3a 17 2f b4 39
       0.00050742086 0.0023342993 0.00086391927 0.0003436736
0002a0 dc 45 bd 39 5a 26 86 39 db ed 63 b8 d8 ea 89 3a
       0.00036100938 0.00025587046 -5.4342538e-05 0.0010522259
0002b0 dd a5 65 3a eb 4b f0 ba 76 d0 52 3a 83 fe a9 39
       0.00087603723 -0.0018333172 0.00080419274 0.00032423818
0002c0 46 b7 09 3a e8 44 be b9 10 98 46 3a 03 68 81 b9
       0.0005253445 -0.00036290963 0.00075757597 -0.00024682292
0002d0 7d fd 86 b8 0c 75 45 38 1d 11 9c 3a f6 db b4 39
       -6.436834e-05 4.707747e-05 0.0011906956 0.0003449616
0002e0 e2 ac c5 3a 1a 99 e0 39 97 d7 6f 3b 2c 5a 88 3a
       0.001508143 0.0004283868 0.0036597007 0.001040285
0002f0 86 9d 9b 3a 2c 47 0f 3b 86 19 c1 b9 a0 d6 3b b9
       0.0011872507 0.002186249 -0.00036830845 -0.00017913664
000300 77 97 09 3a df 8c 27 39 87 02 88 ba 61 17 32 3b
       0.0005248705 0.0001597884 -0.001037673 0.002717458
000310 36 e0 08 3a 8a 11 68 39 8f e5 94 3a 34 bd 36 3a
       0.00052213983 0.00022131778 0.0011359918 0.00069709425
000320 14 00 ed 37 a3 d9 fa 3a 48 c2 c7 39 28 14 ec b8
       2.8252638e-05 0.0019138347 0.0003810099 -0.00011257111
000330 d5 81 ba 39 8a cb dd 39 f7 d6 61 3a f9 df 8b b9
       0.00035573417 0.00042304053 0.0008615101 -0.0002667902
000340 5b 97 49 38 20 0d 31 b9 b7 b0 2d 38 14 e3 8e b7
       4.8063095e-05 -0.00016884925 4.1410993e-05 -1.703346e-05
000350 cc 63 c2 39 e1 ce da 39 e9 70 91 3a a6 6f 04 3a
       0.00037076918 0.00041734337 0.0011096272 0.00050520373
000360 4d eb c7 39 62 14 24 39 c4 f1 a1 3a 13 62 82 39
       0.0003813155 0.00015647852 0.0012355377 0.00024868603
000370 9f 34 b3 b4 bc 7c 07 39 4c dd ba 39 da 30 5a b7
       -3.3379635e-07 0.0001292107 0.00035641564 -1.3005187e-05
000380 35 2e 85 3a a9 fc 00 3b 32 42 b1 3a 5e 31 1b 3a
       0.0010160865 0.0019681847 0.0013523756 0.0005920137
000390 cc 50 bc 39 e2 d1 56 39 45 bc 65 39 5b a3 88 3a
       0.00035918353 0.00020486818 0.00021909278 0.001042466
0003a0 75 7b 41 3a 33 a9 9a b9 66 8a a7 3a 74 32 80 b8
       0.0007380762 -0.00029499232 0.0012782335 -6.112913e-05
0003b0 55 f8 c6 39 06 38 23 3a 18 d2 c6 b8 aa 03 90 39
       0.00037950525 0.00062263047 -9.480509e-05 0.0002746855
0003c0 ac 30 6c 39 ad 28 36 3a e0 85 0f 3a c5 67 1a 38
       0.00022524846 0.000694881 0.0005474966 3.6813104e-05
0003d0 cb 40 47 39 a1 6c 63 38 a1 c8 44 b6 3a 86 ff 38
       0.00019002256 5.4222186e-05 -2.9323057e-06 0.00012184349
0003e0 4e 11 24 3a e4 2c 4a 3a 74 4b 19 38 6a b0 fa 3a
       0.0006258682 0.00077123777 3.6548314e-05 0.0019126062
0003f0 01 45 e9 39 be 74 7f 3a b7 b8 b6 39 b4 c5 4b 35
       0.00044492635 0.0009744874 0.00034851368 7.591109e-07

fc2.bias f4 [300]
000000 f5 21 b6 3b 25 a1 82 3b 45 68 cd 3d d7 42 5a 3c
       0.005558247 0.003986495 0.100296535 0.0133216
000010 6f 45 6e 3c 33 11 65 bc 7b 42 44 3c 8b 7a a6 b0
       0.014542921 -0.013981151 0.011978741 -1.2112918e-09
000020 9c 60 70 3c 53 e2 8b 3c 0d da be ba 37 e7 bd 3b
       0.014671471 0.017075693 -0.0014560834 0.005795385
000030 40 ab e9 3b 84 6e af 3b 5a 37 eb 3c 3e 5a 4a 3d
       0.0071310103 0.0053537507 0.028712917 0.049402468
000040 33 3f 48 38 d5 d2 e9 3b 48 0a 02 3b 36 96 e0 b0
       4.7742575e-05 0.007135729 0.0019842554 -1.6340838e-09
000050 ca 68 e6 ba 3d 95 b9 3c b2 1c 23 3c ef a7 9c 3c
       -0.0017578837 0.02265417 0.009955572 0.019123046
000060 ac 09 ba 3b b2 1e be 3d 45 c0 4f b1 0f a7 2e 3d
       0.0056774225 0.092831984 -3.0231757e-09 0.04263979
000070 8c 0a d0 bc 23 a6 bd b8 81 2b 2f 3a 88 dc 8e 39
       -0.025395654 -9.043168e-05 0.0006682203 0.0002724866
000080 49 c5 19 bd 4a 1c 29 3c 0e 4b cc 3a aa ef 6f bc
       -0.03754166 0.010321686 0.0015586333 -0.014644543
000090 21 38 8a 3c f0 75 bd 3c 85 58 94 3c 08 3d a1 3b
       0.016872467 0.023127526 0.018108616 0.0049206056
0000a0 a6 5c 02 bb b9 d8 9a 3c b4 4a 4a 3c 64 8c af 3b
       -0.0019891649 0.01890217 0.012346912 0.005357312
0000b0 fe 40 90 3c d9 80 1f 38 91 8c 71 3d 31 c8 bc 3c
       0.017609116 3.8028553e-05 0.058971945 0.023044677
0000c0 63 36 5e 3d 1d b8 91 3c ff e8 ab 3c 45 c7 1a bb
       0.054251086 0.017787987 0.020985125 -0.002361731
0000d0 03 49 8e 3c 86 f4 08 3c d6 5b 8b 3c 6c 70 bf 3c
       0.0173688 0.00835908 0.017011564 0.023369037
0000e0 4a 5e 35 3c 72 05 43 3c 1e 25 d7 ab 32 de c8 3c
       0.011069844 0.011903154 -1.5286971e-12 0.024520013
0000f0 df 57 e0 3c e4 29 15 3d 2f 67 2a 3c dc 35 b3 b9
       0.02738565 0.036416903 0.010400577 -0.0003418167
000100 4f 99 0b 3c 2c 96 a5 3c d1 50 02 3b fa ac 0a 3c
       0.008520438 0.02021321 0.0019884596 0.008464092
000110 32 7f bc 3a b1 24 3d a7 00 60 df 3c 8b c2 a9 3c
       0.0014381169 -2.624891e-15 0.027267456 0.020722648
000120 7b a0 1b 3d 55 59 2e 3b 8f 52 df 3c 27 39 07 b4
       0.037994843 0.002660354 0.027261047 -1.2593647e-07
000130 b9 be bd 3b 36 58 8a 3b 60 68 e4 bc 93 37 68 3b
       0.005790558 0.0042219413 -0.027881801 0.0035433515
000140 a0 72 62 3c 65 ab 13 3c 6b 8e b3 ba b5 e4 ae 3a
       0.013821274 0.009013032 -0.001369906 0.0013343306
000150 f7 c5 38 3c 65 fc 46 3a c3 2e c5 3d 96 ec 01 3c
       0.011277667 0.00075907103 0.0962806 0.007929942
000160 a3 1e ae 3c 49 4f 5b 3b fc e2 92 3c e8 45 c7 3c
       0.021254843 0.0033464006 0.0179305 0.024325326
000170 9a 4e 95 b7 ca 1b c4 3a 71 df c9 3c 00 ec b6 ba
       -1.7798786e-05 0.0014961895 0.024642678 -0.0013955832
000180 e6 f2 d0 3c 1c 6e ae 3c 64 73 09 bc b0 4a 6f 3b
       0.025506448 0.021292739 -0.008389328 0.0036513023
000190 c4 80 ee 34 4e 11 5c 3b 72 c5 3e 3b 89 f9 60 33
       4.4424644e-07 0.003357965 0.0029109386 5.2381015e-08
0001a0 49 b8 ce b5 09 2a 78 3c 1b 9e 09 30 83 fe 28 3c
       -1.540183e-06 0.015146741 5.006499e-10 0.010314587
0001b0 0f 70 3f 3b 37 68 0f 3c bf 07 e6 3c 89 b3 f4 b9
       0.002921108 0.008752874 0.028079866 -0.0004667307
0001c0 a0 d7 ff 3c 1f 60 be 3c f6 18 22 3c 57 6d 8d 3c
       0.031230748 0.023239193 0.009893646 0.017264051
0001d0 8f dc 4b 2c 23 44 61 3c 3b a7 b3 ba b1 34 2d 3c
       2.897047e-12 0.013749155 -0.0013706455 0.010571645
0001e0 8b 7c a0 3b e9 83 a9 3b b5 86 07 3d 7a 45 07 b1
       0.004897659 0.0051731956 0.03308745 -1.9684578e-09
0001f0 d1 51 a4 3d 43 38 a2 3c d8 74 ec 3b 1a 82 e7 3b
       0.08023418 0.019802218 0.0072160773 0.00706507
000200 2a 26 59 bc 98 3b 39 b8 f4 62 b6 3d 0d 2e 43 bd
       -0.013253728 -4.4162938e-05 0.089055926 -0.04765134
000210 4b 2d a5 bc f3 7e 80 b9 fd f5 b6 3d 9e 65 70 3c
       -0.020163199 -0.00024508647 0.08933637 0.014672665
000220 6b 65 52 3b c2 e9 7a 3d f9 b4 ce 3b 4f 7d 59 3b
       0.0032103907 0.061258085 0.0063081947 0.0033186262
000230 cb ba 86 3c 1f 54 c6 3b a6 5c 9f 3b 7a 3c 0f 2e
       0.016446492 0.0060525085 0.0048633395 3.256815e-11
000240 a1 2e 27 3c c4 72 70 bc 46 78 c1 3b ed ee b6 3d
       0.010203988 -0.0146758 0.0059042303 0.0893229
000250 4f 37 8b aa ea 00 6b 3a 8d 8d e5 3c 4d 02 9b 32
       -2.4729738e-13 0.0008964675 0.028021598 1.8045421e-08
000260 30 ca e0 3b 8c f9 a1 3c 7a 96 28 34 b3 ca f7 3b
       0.00686004 0.019772314 1.5700962e-07 0.0075620054
000270 5b 88 a2 3c 4e cf c7 3b 86 87 86 3b a7 f4 01 3b
       0.01984041 0.0060977107 0.004105511 0.0019829662
000280 84 56 18 3a be fe 8e 37 a7 16 53 3c 7b 2f 98 3b
       0.00058112317 1.7046343e-05 0.012883819 0.004644332
000290 52 55 5b 3c c8 25 20 3b 8f 10 6d 3c 55 d5 86 3b
       0.013387041 0.0024436582 0.01446928 0.0041147866
0002a0 0d e5 8e b6 a1 9d 1d 3b b4 f8 c0 3b 1c a1 d1 3c
       -4.258595e-06 0.0024050253 0.0058890227 0.025589518
0002b0 eb 78 5f 3c df df 10 b9 88 49 fe 39 61 c4 8e b8
       0.013639669 -0.00013816309 0.0004850144 -6.807666e-05
0002c0 56 87 c9 b7 fb 92 97 3c 2f e3 c0 3b 00 a8 cb 3a
       -2.4024088e-05 0.018502703 0.0058864574 0.0015537739
0002d0 88 a9 03 3a 64 5c da b9 77 28 9b 3c 12 09 5b 3c
       0.00050225155 -0.00041649037 0.018940194 0.013368862
0002e0 f4 00 35 3d a5 02 63 3c 46 e5 74 bc ba 59 93 3b
       0.044190362 0.013855611 -0.014947241 0.00449678
0002f0 39 ff 5d 3d 2f 12 83 3c 12 33 dc ba ff a2 ba b5
       0.054198477 0.015999882 -0.0016799888 -1.3905518e-06
000300 15 6a ba a4 c6 b4 a1 3c 7d f1 7c 3b 91 04 e9 3b
       -8.084435e-17 0.01973952 0.0038596087 0.00711114
000310 e4 27 71 ab 59 be e1 3c 25 48 69 3c 31 40 da 3c
       -8.567576e-13 0.027556585 0.014238392 0.026641937
000320 12 29 c0 3b 94 03 3e bd 0d 23 2f 3d 56 e8 3b 3b
       0.005864271 -0.04639013 0.042758036 0.0028672419
000330 f5 fb 36 b9 91 dc e7 3c b7 90 fa 3b 20 39 b1 3b
       -0.00017450734 0.028303416 0.007646646 0.005408421
000340 10 1a 9c 32 20 ce 3d 37 81 1c 71 3c 47 c1 8e 3b
       1.8172642e-08 1.131327e-05 0.0147162685 0.0043565365
000350 f8 0a 12 3d 23 78 9c 3e bd b4 cd 3c d2 16 d9 3b
       0.035654992 0.30560407 0.025110597 0.006625035
000360 4c 01 82 3b ba 37 a0 b5 ad b9 7a 3c 1d be 94 3b
       0.0039674398 -1.1937148e-06 0.015303058 0.004539265
000370 50 23 a6 3c 65 ca bd 3c bf 24 5a 3e 22 b3 3b 3d
       0.02028051 0.023167798 0.2130308 0.04582513
000380 24 40 cd 3c f7 d6 c5 bc 25 94 22 ba f6 26 7c 3d
       0.025054999 -0.024150355 -0.0006201885 0.061560594
000390 e0 36 1b 3c c2 49 1c af 70 54 b0 bc 56 47 9a b9
       0.009473532 -1.4214321e-10 -0.021524638 -0.00029426318
0003a0 44 f2 bc 3b af 54 8f 3c 79 fb 82 3b 89 67 ad 3c
       0.005766185 0.017496435 0.003997263 0.021167533
0003b0 97 75 4f 3c 5b 1e a2 3b f9 a2 36 b9 52 38 a7 bc
       0.012662313 0.0049474663 -0.00017417585 -0.020412598
0003c0 d1 7e 13 3c 44 e5 83 3c b0 88 8d 3c cb a3 86 3c
       0.009002403 0.016100533 0.017277092 0.016435524
0003d0 2a 2d fd ba 0c 0c dd 3c 0d 03 96 3b c5 ef be 3c
       -0.0019315828 0.026983283 0.0045780004 0.02330769
0003e0 0f dc af a8 21 67 f8 3c ed 30 e7 2f 64 d4 cd 3c
       -1.9524338e-14 0.030322613 4.205342e-10 0.02512569
0003f0 e9 f1 e7 3b cb 85 22 ac ce 7e 4c 32 3c cb 79 3c
       0.0070783985 -2.3095855e-12 1.1903195e-08 0.015246209

fc_out.weight f4 [1, 300]
000000 01 18 c3 bb eb f4 d0 bc e5 ee 4d be 3b b1 b3 bc
       -0.005953789 -0.025507411 -0.20110662 -0.021935096
000010 ef 33 61 bc a4 db 3d 3d e0 f7 bf bc f8 6f 6e bb
       -0.013745292 0.046352044 -0.023433626 -0.0036382657
000020 e9 5a 61 bc b9 81 81 bc fe 06 9b bc 03 b9 8e bc
       -0.013754585 -0.015808927 -0.018924233 -0.017422205
000030 89 66 fe bb dc b3 89 bc 24 ec 10 bd 0c 0d 6c be
       -0.007763688 -0.016809396 -0.03538145 -0.23051852
000040 e0 20 ba b9 d4 73 82 bc 72 b9 03 bb 48 7a e3 bb
       -0.00035501178 -0.015924372 -0.0020099548 -0.0069420673
000050 40 d1 0c b8 66 61 b9 bc f2 78 b8 bc 4d 3b c1 bc
       -3.357348e-05 -0.022629451 -0.022518609 -0.023587847
000060 69 7e a5 bc 86 5d 1c be 2d 00 f6 bb 62 aa 6b bd
       -0.020201879 -0.15270051 -0.007507345 -0.057535537
000070 d4 f1 c3 3d 13 1d 46 bb bb 00 0f 3b ee c5 7c b9
       0.095676094 -0.0030229732 0.0021820504 -0.00024106327
000080 07 0d bb be bb 4e 95 bc 5a 9a 75 bc 80 bd 38 3d
       -0.36533377 -0.018226018 -0.014990414 0.045102596
000090 06 20 d0 bc 77 f9 b3 bc 29 e9 9f bc b3 34 a8 bc
       -0.025405895 -0.02196954 -0.01952036 -0.020532941
0000a0 18 91 b9 bb fe 8c a9 bc 59 ab 66 bc 94 1e 9a bc
       -0.0056630485 -0.020697113 -0.014078938 -0.018813409
0000b0 6e 89 b4 bc 4a a6 16 b8 71 33 76 be f7 ac e6 bc
       -0.022038188 -3.5917656e-05 -0.24043061 -0.028158648
0000c0 b8 7e 71 be ae 54 aa bc 36 f0 b9 bc 50 d8 36 bc
       -0.23583496 -0.020792332 -0.02269755 -0.011159971
0000d0 6c 52 be bc 69 3d ad bc 7d 5d 91 bc b8 18 c4 bc
       -0.023232661 -0.021147447 -0.017744774 -0.023937568
0000e0 ab 0d b2 bc 28 28 94 bc 79 f1 01 3b 69 3e ae bc
       -0.021735033 -0.018085554 0.0019827767 -0.021269994
0000f0 f6 c6 b3 bc e3 7a 40 bd 84 42 3e bc 5d 44 9e bb
       -0.021945458 -0.046992194 -0.011612538 -0.004829927
000100 57 d3 a9 bc 64 79 8c bc 4a d6 a3 bc 50 75 19 bc
       -0.020730658 -0.017147727 -0.019999642 -0.009366348
000110 47 3c af bc 80 42 29 a8 c2 e1 fe bc d2 1c b3 bc
       -0.021391047 -9.3958044e-15 -0.03111351 -0.021864329
000120 82 d9 56 bd a3 3b 8d bc f2 bf b2 bc 22 5e 68 bb
       -0.052453525 -0.017240351 -0.021820042 -0.0035456498
000130 86 30 b3 bc ea a0 a5 bc f0 3b 0d bf a0 e7 a9 bc
       -0.021873724 -0.020218331 -0.5516958 -0.02074033
000140 4d 4d 96 bc 85 80 88 bc d1 e5 0c ba f0 6e 9e bc
       -0.018347407 -0.016662845 -0.00053748215 -0.019340008
000150 dc 15 8e bc 18 7f 76 bc e3 86 1a be d5 29 b1 bc
       -0.017344408 -0.01504495 -0.15090518 -0.021626392
000160 01 fd bd bc 6c 70 5f bb 41 83 72 be 8d 4b af bc
       -0.02319193 -0.0034094108 -0.23682882 -0.02139833
000170 c1 a0 40 b9 90 c8 ce bb 7a 4b ae bc b4 fd 9c bc
       -0.00018370432 -0.00631053 -0.021276224 -0.019163944
000180 a0 50 03 bd bf 44 b6 bc 0d 6d a2 bd 40 ce 99 bd
       -0.032059312 -0.022249578 -0.07930956 -0.07510042
000190 e9 18 3f 36 8e b7 a5 bb d9 af c3 bc 33 1f 07 b5
       2.8475717e-06 -0.005057282 -0.023887562 -5.033682e-07
0001a0 62 50 c5 b6 c4 49 be bc 16 c0 b9 bb 98 15 ac bc
       -5.8804153e-06 -0.023228534 -0.0056686504 -0.02100639
0001b0 ff 92 05 bd 84 68 b1 bc ce 26 0e bd 0a 56 cc bb
       -0.03261089 -0.021656282 -0.034704976 -0.0062358426
0001c0 dd 83 1c bd 89 b7 ae bc 3d 83 66 bc 14 e0 9b bc
       -0.038211692 -0.02132775 -0.014069376 -0.019027747
0001d0 55 e9 67 2a 21 21 8e bc 49 7a 4b bb 50 e3 a9 bc
       2.0597875e-13 -0.017349781 -0.003104823 -0.020738274
0001e0 08 31 9d bb a6 31 f0 bb 2e b5 27 bd da b4 cb bb
       -0.0047971047 -0.0073301373 -0.04094427 -0.0062166275
0001f0 b1 3c 48 be 27 27 bb bc b1 ba b3 bc b1 75 83 bc
       -0.19554402 -0.022845818 -0.021939607 -0.01604733
000200 94 1c bc be f2 45 48 3b 12 3e 1c be 77 2e e2 be
       -0.36740553 0.0030559269 -0.15258053 -0.44176075
000210 02 33 9b 3d 24 cc df 3a d8 b9 5f be a2 fb 9a bc
       0.07578088 0.0017074388 -0.21848238 -0.018918816
000220 72 c6 57 bb 57 d1 c2 bd 71 d4 b0 bc cf f8 aa bc
       -0.003292468 -0.09512585 -0.021585675 -0.020870594
000230 62 9b a5 bc 14 c0 84 bc 8a d6 c6 bb 0f c7 ad ae
       -0.020215694 -0.016204871 -0.0060680555 -7.902489e-11
000240 12 ef bb bc 54 32 43 3d 0b 98 d2 bb c2 62 11 be
       -0.022941146 0.04765542 -0.0064268163 -0.1419783
000250 f1 ea d3 bb 31 82 5b ba 3c e0 bf bc cc a4 01 b6
       -0.006467216 -0.0008373587 -0.023422353 -1.9318422e-06
000260 4d 06 f5 bb eb ac c0 bc 79 62 a7 b4 ff 33 a1 bc
       -0.0074775578 -0.023519954 -3.1177822e-07 -0.019678114
000270 f4 46 c8 bc fb bb d6 bb b0 73 8d bb ab 11 b2 bc
       -0.024447896 -0.0065531707 -0.0043167695 -0.02173694
000280 74 ad 0e ba 43 62 6a b7 67 02 b1 bc 54 86 f6 bc
       -0.00054427166 -1.3970365e-05 -0.02160759 -0.03009335
000290 e1 68 9a bc ea 9b 95 bc d5 b2 c2 bc 75 4d c0 bc
       -0.018848838 -0.018262822 -0.023766914 -0.023474434
0002a0 99 a8 a4 bb 0c 16 97 bc 12 22 9c bc 9a d9 b6 bc
       -0.005024981 -0.01844313 -0.019059215 -0.022320557
0002b0 a4 94 c4 bc e9 e8 d3 3a 69 ce f3 b9 d6 2a 5f bc
       -0.023996659 0.0016167435 -0.0004650236 -0.013621053
0002c0 e2 60 42 b8 4e 4b b0 bc 45 f0 d3 bb 97 b9 96 bc
       -4.6343433e-05 -0.021520283 -0.0064678513 -0.018399043
0002d0 08 3e f9 b9 37 16 42 3b 60 a2 da bc 7f df b8 bc
       -0.00047539198 0.0029615292 -0.026688755 -0.022567509
0002e0 de a0 8d be 1b 33 b0 bc 9d 6f 47 3d 9a 40 a0 bc
       -0.27661794 -0.021508744 0.048690427 -0.019562054
0002f0 bf 2d 9a bd cf e3 bb bc 74 43 ad 3b 40 f4 62 35
       -0.075282566 -0.022935776 0.005287582 8.454699e-07
000300 99 67 e8 a4 ee 14 84 bc 16 df a7 bc a9 b0 10 bc
       -1.0078946e-16 -0.016123261 -0.020492118 -0.008831182
000310 53 1b 7b 2c 95 81 c2 bc ce 22 8c bc a4 be b5 bc
       3.5684413e-12 -0.02374343 -0.01710644 -0.022185631
000320 d6 c3 a5 bc 16 87 03 bf 6d 31 d6 bd 5e 55 b7 bc
       -0.020234983 -0.51378 -0.10458646 -0.022379573
000330 eb 40 51 3b 27 0c c1 bc 77 aa 09 bc 52 04 d1 bc
       0.0031929563 -0.023565365 -0.008402458 -0.025514755
000340 e1 fb 00 bc 85 d3 de b7 57 6c a7 bc 9c 45 a7 bc
       -0.007872553 -2.6562959e-05 -0.020437403 -0.020418935
000350 19 6d 38 bd d1 9f 19 bf 62 db b3 bc 4a 15 c6 bc
       -0.04502592 -0.60009485 -0.021955196 -0.024180073
000360 93 69 aa bc 1b 43 2f 36 28 db b9 bc 65 aa a2 bb
       -0.020802295 2.6116093e-06 -0.02268751 -0.0049641603
000370 34 38 a0 bc ce d4 ab bc 4c 5b b1 be 5f f6 89 bd
       -0.01955805 -0.020975497 -0.34639966 -0.06736445
000380 e5 60 ba bc 1c e1 b8 3d ca 01 8e 3b b4 2e 58 be
       -0.022751281 0.09027311 0.0043337094 -0.21111566
000390 b5 99 ac bc c7 f4 47 b2 ad 41 c7 be e6 7c b8 bb
       -0.021069387 -1.16389804e-08 -0.38917294 -0.0056301234
0003a0 9a 95 a6 bc 14 dd b9 bc 29 86 ff bb 25 4f b3 bc
       -0.020335007 -0.022688426 -0.0077979756 -0.021888325
0003b0 5f 35 6e bc 7d f3 46 bc f6 95 c9 bb 61 19 a2 3d
       -0.014539092 -0.012143013 -0.00615191 0.07914997
0003c0 99 de bb bc 73 02 a1 bc dc 6a bd bc 57 1b a4 bc
       -0.022933291 -0.019654488 -0.023122244 -0.020032568
0003d0 88 76 6c bc fd 70 d1 bc fc 7b a9 bc b0 93 b0 bc
       -0.014432557 -0.025566572 -0.020689003 -0.021554798
0003e0 18 f7 f9 a9 fc 3e bf bc be f7 0d 31 66 d6 b5 bc
       -1.1100685e-13 -0.023345463 2.0659026e-09 -0.02219696
0003f0 95 bd 9c bc ce 31 ae 3b 02 ba 7b bb bd 12 a9 bc
       -0.019133369 0.005315996 -0.003841043 -0.020638818
