DDPG/weights/target_actor.pth (torch, 490711 bytes, 5 tensors)

fc1.weight f4 [400, 3]
-0.28292823 0.41316372 -0.29684684 -0.53064656 -0.4769887 0.24089482 -0.15729822 -0.17942563
0.40812552 -0.061432637 0.072878875 -0.08609949 0.16413066 -0.39525574 0.116610676 0.45691752
0.07248946 0.2670954 -0.12178394 0.50144005 -0.31747523 0.072888575 0.21919803 0.21345128
-0.3151203 0.43433738 -0.17888616 -0.33290964 0.13050364 0.43503827 -0.3191441 -0.042835884
-0.32282495 0.23202445 -0.42627057 0.46645433 0.4496234 -0.111555114 -0.30191413 -0.08846378
-0.53206825 -0.35712397 -0.34033284 0.056598295 0.36330578 -0.19837393 0.07545259 -0.47928438
-0.2888111 -0.49640673 0.04089849 -0.21671768 0.35229504 -0.07918197 -0.4692578 -0.25384712
-0.29700026 0.104242474 -0.12410327 -0.47749367 -0.55912006 0.39328182 -0.040434718 -0.35743198
0.014864482 -0.36768854 0.014169345 0.23682319 0.5006134 0.39159057 -0.48102126 -0.27376515
-0.37608117 -0.11626543 0.5377178 0.10592996 -0.59982306 -0.24892648 0.1493938 -0.31240165
0.12302098 -0.49584958 -0.48933727 -0.30676475 -0.035205577 -0.12451379 -0.38822877 0.21034074
-0.30215088 0.34781483 -0.51789 -0.4447624 0.4606657 -0.45201066 -0.5179958 -0.5040935
0.5498158 -0.5431587 -0.15678838 0.08995935 -0.24903423 -0.42214793 -0.13230674 -0.5496238
0.3994333 -0.51261675 0.57586163 -0.188531 -0.35466126 -0.3044333 -0.3167635 -0.3393667
-0.2617348 -0.36601862 -0.35309508 -0.26791534 -0.3627243 0.05716908 -0.41690862 0.43423826
-0.39128557 -0.34904554 0.3273074 0.04200406 0.11115633 -0.46609408 0.39416224 -0.54224765
-0.14105876 -0.44116512 0.249165 0.4834617 -0.5869685 -0.61912066 0.11914815 -0.29415295
-0.26003024 0.06583423 -0.23441257 -0.03119007 -0.11030856 -0.5281352 -0.3987405 -0.09498695
-0.08514881 -0.122011796 -0.4171467 -0.18253389 -0.019086886 -0.23442304 -0.02425771 -0.15234284
0.36998084 -0.14669558 -0.36312637 0.41101623 -0.13402495 -0.5176288 0.26699698 0.4862553
-0.40438947 0.23814198 0.048335794 0.6542139 0.1444753 0.119105205 0.05253555 -0.34958935
-0.35611108 0.30134648 -0.04767936 0.15394665 0.36149284 -0.366072 0.19144028 -0.23255946
-0.5424909 -0.5456249 0.5480695 0.2975395 -0.3701279 0.26721236 0.54088134 -0.09864193
0.31670946 -0.031715218 -0.27205607 -0.31206304 -0.35086858 0.28630036 0.35945678 -0.54419166
0.19169018 -0.36663175 -0.16344434 0.3645329 0.5522573 -0.094451316 -0.27504212 -0.25576243
-0.10899778 0.32692167 -0.33919916 0.111981645 -0.5230149 0.20838037 -0.44180134 -0.5556616
-0.32687873 -0.23367581 -0.12997782 0.19756752 -0.0903081 -0.09998545 0.41414064 -0.3581967
0.3415453 0.5393708 0.50499517 -0.35324568 0.50293475 0.28197676 -0.48572937 -0.1546632
0.21533895 0.09147007 0.26510754 0.017383546 -0.022395078 0.05304539 0.25036344 0.33771208
0.28186533 0.012594602 0.20690192 -0.04392476 0.20634799 0.46769884 0.081552215 -0.21811812
0.0325475 0.25599915 -0.15005 0.039461195 -0.09105313 -0.019729376 0.4870863 0.3248813
-0.48766577 -0.3979651 -0.38465616 0.12860537 0.23198077 -0.03942657 0.2863175 0.2766263
00000000: f8db 90be 328a d33e 4ffc 97be 74d8 07bf
00000010: dd37 f4be 22ad 763e c912 21be 5abb 37be
00000020: d4f5 d03e caa0 7bbd 8541 953d ee54 b0bd
00000030: de11 283e f65e cabe 94d1 ee3d 18f1 e93e
00000040: 5b75 943d bac0 883e dc69 f9bd 605e 003f
00000050: 1d8c a2be 9b46 953d 7375 603e f992 5a3e
00000060: 7357 a1be 7861 de3e ef2d 37be 2273 aabe
00000070: bfa2 053e 56bd de3e db66 a3be ae74 2fbd
00000080: 5049 a5be d197 6d3e 2340 dabe 1ad3 ee3e
00000090: 0a35 e63e 0277 e4bd 7d94 9abe 802c b5bd
000000a0: a035 08bf f4d8 b6be 1b40 aebe 9dd3 673d
000000b0: 3703 ba3e 8922 4bbe e386 9a3d c364 f5be
000000c0: 0cdf 93be 0629 febe 2d85 273d 3deb 5dbe
000000d0: 0460 b43e 282a a2bd 8f42 f0be 40f8 81be
000000e0: 6b10 98be 147d d53d db29 febd 0d7a f4be
000000f0: 7e22 0fbf 3c5c c93e e09e 25bd 5301 b7be
00000100: 288a 733c ac41 bcbe 8a26 683c c781 723e
00000110: 3328 003f 8f7e c83e 6b48 f6be f22a 8cbe
00000120: b68d c0be 921c eebd e0a7 093f cff1 d83d
00000130: 018e 19bf 95e6 7ebe b0fa 183e 1cf3 9fbe
00000140: 6cf2 fb3d ffdf fdbe 6a8a fabe 4510 9dbe
00000150: b933 10bd 1601 ffbd ecc5 c6be 9063 573e
00000160: 85b3 9abe c914 b23e 7094 04bf e6b7 e3be
00000170: 60dc eb3e f16d e7be 5f9b 04bf 460c 01bf
00000180: bac0 0c3f 730c 0bbf 228d 20be 9c3c b83d
00000190: d402 7fbe c623 d8be 6b7b 07be 25b4 0cbf
000001a0: 8682 cc3e da3a 03bf ab6b 133f 450e 41be
000001b0: 2996 b5be aede 9bbe d32e a2be 79c1 adbe
000001c0: 1b02 86be cb66 bbbe e1c8 b4be 332c 89be
000001d0: 00b7 b9be 202a 6a3d 0c75 d5be 7a54 de3e
000001e0: 9556 c8be 19b6 b2be d694 a73e 730c 2c3d
000001f0: eea5 e33d e2a3 eebe a2cf c93e bed0 0abf
00000200: b571 10be 65e0 e1be 1c25 7f3e 4b88 f73e
00000210: 9143 16bf b17e 1ebf f203 f43d 379b 96be
00000220: af22 85be 19d4 863d d909 70be 5182 ffbc
00000230: 74e9 e1bd de33 07bf b727 ccbe 8588 c2bd
00000240: 8062 aebd 52e1 f9bd 4194 d5be 2aea 3abe
00000250: 1a5c 9cbc 980c 70be 1bb8 c6bc c3ff 1bbe
00000260: 216e bd3e 5e37 16be b3eb b9be b870 d23e
00000270: d63d 09be 5283 04bf d4b3 883e 74f6 f83e
00000280: 230c cfbe 7edb 733e c1fb 453d 907a 273f
00000290: 55f1 133e 6eed f33d 842f 573d 60fd b2be
000002a0: 3154 b6be 164a 9a3e 6f4b 43bd 31a4 1d3e
000002b0: 9715 b93e ca6d bbbe ec08 443e 1124 6ebe
000002c0: afe0 0abf 13ae 0bbf 484e 0c3f 1957 983e
000002d0: 6781 bdbe 0fd0 883e 3377 0a3f c804 cabd
000002e0: be27 a23e d1e7 01bd ef4a 8bbe bac6 9fbe
000002f0: 0ca5 b3be f695 923e b80a b83e 2550 0bbf
00000300: 6e4a 443e 28b7 bbbe f45d 27be 0ea4 ba3e
00000310: bc60 0d3f b16f c1bd 52d2 8cbe 4bf3 82be
00000320: 3a3a dfbd 4762 a73e 83ab adbe a256 e53d
00000330: 4ee4 05bf aa61 553e c933 e2be d73f 0ebf
00000340: a65c a7be b648 6fbe e818 05be 244f 4a3e
00000350: 74f3 b8bd 2cc5 ccbd 3e0a d43e 8f65 b7be
00000360: 07df ae3e 3414 0a3f 5d47 013f 9edc b4be
00000370: 55c0 003f 425f 903e 85b1 f8be 0860 1ebe
00000380: d081 5c3e a954 bb3d 2dbc 873e f067 8e3c
00000390: e275 b7bc 1f46 593d a32f 803e 99e8 ac3e
000003a0: a750 903e 9759 4e3c 19de 533e 73ea 33bd
000003b0: e34c 533e 3976 ef3e d904 a73d 5b5a 5fbe
000003c0: 8750 053d 5212 833e b5a6 19be 10a2 213d
000003d0: 107a babd 809f a1bc 6063 f93e d756 a63e
000003e0: 54af f9be 15c2 cbbe a7f1 c4be 20b1 033e
000003f0: 5e8c 6d3e c17d 21bd 3598 923e f6a1 8d3e

fc1.bias f4 [400]
-0.105671644 -0.34946844 -0.3675416 -0.29123136 0.3476481 -0.53078365 0.4070361 0.38243645
-0.54302704 0.1370766 -0.5177877 0.16024032 -0.038216215 -0.04064558 0.20944476 -0.17935029
0.2788915 0.50851923 -0.25263122 0.1680345 -0.3668682 0.48763955 0.12981959 0.021346414
-0.3568483 -0.026142169 -0.21205518 0.13217404 0.51826584 0.5195694 -0.1950548 0.48084295
-0.56653285 0.029811194 0.039571967 0.0046483027 0.33455703 -0.37378505 0.51078874 0.26920015
0.036620412 -0.5267849 0.120197654 0.18081151 0.42975146 -0.20541415 -0.57166225 -0.15894517
-0.08467851 0.40895033 -0.5226203 -0.0779719 0.07084198 -0.31393585 0.52844155 -0.6156064
0.27033198 0.5063705 -0.2779221 -0.59144694 0.08135976 0.5161051 0.2525135 -0.3330399
-0.14269096 -0.2991028 -0.5425732 0.1794417 -0.24454714 0.47674826 -0.43298233 -0.60286725
-0.1248399 0.46778208 0.39697203 0.21752283 0.039582927 0.21668555 -0.051340528 0.25859162
0.069806136 -0.49241894 -0.5060063 0.44686848 -0.18403368 -0.24487986 -0.12647758 0.25044876
0.34803116 0.52025956 -0.48233113 -0.38911206 -0.12810554 -0.03974306 -0.12364506 0.07098272
-0.24730043 -0.0046530887 0.14759658 0.3762943 -0.2704903 -0.0051159495 0.28511968 -0.48085332
-0.0705487 0.31591326 0.53216535 -0.28402305 -0.14210989 0.57842326 -0.4922305 0.15524197
0.11873386 -0.32453415 0.072723575 0.33823594 0.40442592 0.0788774 -0.43997562 -0.031395547
0.48144862 0.18939975 -0.41575631 0.22278196 0.19468126 0.46188825 0.05137323 -0.2918645
0.26743072 0.5140893 -0.49509344 -0.017504126 -0.47330877 0.21637484 0.5156212 -0.038109794
0.562364 -0.08771117 -0.25520456 0.4282597 -0.32981482 0.5810938 -0.40569904 0.06337087
0.15363733 -0.545822 0.011896481 0.21891046 0.5515576 0.041343223 0.23726645 0.25247946
-0.43358204 -0.20394467 -0.50948393 0.27672887 0.4600306 0.35365254 -0.39934042 -0.5812049
0.27627087 -0.013846594 -0.36549103 -0.4240926 -0.57986134 -0.53918374 -0.5063001 0.3913994
-0.09045167 0.25065213 -0.18422532 0.2944579 0.15121575 -0.3952083 -0.35494056 -0.32155234
-0.31849226 0.30919442 0.13837653 0.11694393 0.4367541 0.20177168 -0.19439195 0.023106562
-0.007491961 0.17282377 0.40771013 0.44960916 -0.35889587 0.041251756 0.32577685 0.111052215
-0.09708949 0.5455516 -0.37004584 0.010174061 0.58374166 -0.41211113 0.06309298 -0.16180603
0.4594852 0.16527896 0.5169543 0.20992203 -0.10264901 -0.20421393 -0.11280962 -0.17187098
0.30925098 0.28661543 0.28928193 0.43942627 -0.5332583 0.0334744 -0.32934484 -0.339174
0.324096 -0.04796779 -0.4616811 -0.041625302 0.06852874 -0.046592724 -0.4202285 -0.4676175
-0.3302559 0.48893854 0.5541306 0.2714261 0.11815988 -0.19383013 -0.572944 -0.17329837
-0.5141563 -0.39123988 -0.33462852 -0.027896384 0.07149373 0.44613683 -0.028221738 0.2845997
-0.0676711 0.36616415 0.18123925 0.0718338 0.40193287 0.13119435 0.22302322 0.035097085
-0.5447854 -0.009662955 0.53332245 0.33147803 -0.35239592 0.11104314 0.23253424 -0.3554209
00000000: 606a d8bd 87ed b2be 6a2e bcbe 471c 95be
00000010: effe b13e 70e1 07bf 0967 d03e b6ce c33e
00000020: d203 0bbf cf5d 0c3e bc8d 04bf 0a16 243e
00000030: 9b88 1cbd fb7b 26bd b078 563e 9aa7 37be
00000040: deca 8e3e 512e 023f e158 81be 3c11 2c3e
00000050: 26d6 bbbe e4ab f93e 6def 043e adde ae3c
00000060: d2b4 b6be 1a28 d6bc fe24 59be a258 073e
00000070: 12ad 043f 8002 053f 72bc 47be 0c31 f63e
00000080: 4c08 11bf 9b36 f43c 3716 223d ca50 983b
00000090: 0f4b ab3e c160 bfbe 0dc3 023f 9ad4 893e
000000a0: 49ff 153d 60db 06bf 302a f63d a726 393e
000000b0: 6208 dc3e 1658 52be 7558 12bf 86c2 22be
000000c0: ed6b adbd f061 d13e 72ca 05bf bbaf 9fbd
000000d0: 9a15 913d 33bc a0be f247 073f 6298 1dbf
000000e0: f468 8a3e 7fa1 013f ce4b 8ebe 1169 17bf
000000f0: f29f a63d 771f 043f 7349 813e 3584 aabe
00000100: 941d 12be 0124 99be 14e6 0abf 91bf 373e
00000110: 916a 7abe 5918 f43e dcaf ddbe 8255 1abf
00000120: 10ac ffbd 2281 ef3e eb3f cb3e 4ebe 5e3e
00000130: b521 223d d1e2 5d3e 724a 52bd 1f66 843e
00000140: 85f6 8e3d 561e fcbe a189 01bf f2cb e43e
00000150: 5373 3cbe c9c1 7abe 5783 01be d23a 803e
00000160: 2431 b23e bb2f 053f 1bf4 f6be b239 c7be
00000170: 192e 03be 9ec9 22bd 9f39 fdbd 635f 913d
00000180: 533c 7dbe f078 98bb 8f23 173e a6a9 c03e
00000190: b47d 8abe b2a3 a7bb 35fb 913e 6832 f6be
000001a0: d67b 90bd 62bf a13e fd3b 083f 786b 91be
000001b0: 4185 11be 8c13 143f a305 fcbe c0f7 1e3e
000001c0: bd2a f33d 5729 a6be 19f0 943d 432d ad3e
000001d0: ea10 cf3e 798a a13d 7c44 e1be 9e98 00bd
000001e0: 6f80 f63e 02f2 413e 03de d4be f420 643e
000001f0: 865a 473e 9e7c ec3e bc6c 523d 446f 95be
00000200: aeec 883e 5b9b 033f e37c fdbe d064 8fbc
00000210: 8755 f2be 5e91 5d3e c0ff 033f 0419 1cbd
00000220: 16f7 0f3f eaa1 b3bd 2caa 82be db44 db3e
00000230: 7ddd a8be 90c2 143f c9b7 cfbe 96c8 813d
00000240: 1b53 1d3e feba 0bbf 75e9 423c 102a 603e
00000250: e132 0d3f 8357 293d faf5 723e fd44 813e
00000260: 77fe ddbe dfd6 50be 8a6d 02bf 68af 8d3e
00000270: 2189 eb3e f211 b53e 5976 ccbe d8c9 14bf
00000280: 6073 8d3e d3dc 62bc a421 bbbe aa22 d9be
00000290: cb71 14bf f207 0abf e29c 01bf 8165 c83e
000002a0: ba3e b9bd 7a55 803e 90a5 3cbe 30c3 963e
000002b0: 4dd8 1a3e be58 cabe c5ba b5be 82a2 a4be
000002c0: 6b11 a3be bb4e 9e3e 94b2 0d3e 4d80 ef3d
000002d0: 3c9e df3e 3c9d 4e3e af0e 47be f949 bd3c
000002e0: 207f f5bb b7f8 303e 62bf d03e 2c33 e63e
000002f0: 33c1 b7be 9af7 283d 39cc a63e 586f e33d
00000300: dbd6 c6bd 45a9 0b3f a676 bdbe 1bb1 263c
00000310: 1870 153f 3b00 d3be e436 813d 7bb0 25be
00000320: a541 eb3e e33e 293e 1e57 043f cdf5 563e
00000330: a539 d2bd 751d 51be bb08 e7bd f2fe 2fbe
00000340: 2556 9e3e 42bf 923e c31c 943e 7bfc e03e
00000350: 9e83 08bf 741c 093d e39f a8be 37a8 adbe
00000360: e9ef a53e e079 44bd 7761 ecbe 4b7f 2abd
00000370: cc58 8c3d 03d8 3ebd 3128 d7be 906b efbe
00000380: 4d17 a9be 2756 fa3e 81db 0d3f 5df8 8a3e
00000390: cffd f13d 687b 46be 75ac 12bf 2175 31be
000003a0: bf9f 03bf 9850 c8be 6e54 abbe f586 e4bc
000003b0: 4e6b 923d 0c6c e43e 4631 e7bc 0db7 913e
000003c0: 2597 8abd de79 bb3e c896 393e 991d 933d
000003d0: 25ca cd3e d057 063e 3360 643e f6c1 0f3d
000003e0: 0e77 0bbf 5f51 1ebc d287 083f 7db7 a93e
000003f0: 3d6d b4be 966a e33d 751d 6e3e baf9 b5be

fc2.weight f4 [300, 400]
-0.0441345 -0.008595313 -0.015469743 -0.029626776 -0.04040921 0.032054156 0.0052152323 0.002217963
0.03402241 0.0256335 0.0044206902 0.020293908 -0.0010974555 0.029483628 -0.010191095 0.020289455
0.00020430124 -0.008524121 -0.038485374 0.033248212 0.018316897 -0.058180302 0.031506196 -0.008397378
-0.045112807 -0.043045387 0.048665784 -0.015658513 -0.034298107 0.032555003 0.041632652 -0.0058562546
-0.0060346653 -0.0462881 0.006728931 -0.05003827 0.007930693 -0.033567164 -0.048411068 -0.021809626
-0.019956537 -0.045510598 -0.0011265773 0.03077968 -0.0031025866 -0.012740525 0.011552773 -0.00985
0.046051573 -0.033108164 -0.011909818 -0.030912852 -0.029443847 0.04046648 -0.02702331 -0.046566762
-0.030147746 -0.04156545 -0.0039640144 0.01914492 -0.01912505 -0.06497308 -0.007817696 0.04918954
0.019168004 -0.043258894 0.008514125 0.04521822 -0.012000363 0.022351569 -0.03704136 -0.01867462
0.03957062 -0.006673484 0.044721574 -0.03579094 -0.013412411 -0.004705369 0.0008613332 0.00051605364
-0.016944028 0.034562897 -0.019189 0.007418707 -0.03346866 -0.023651283 -0.03817951 0.01923794
0.023519395 -0.03520145 0.026008446 0.03203636 0.048906274 -0.05354939 -0.007499933 -0.004012098
-0.0035361259 0.01957323 -0.057383087 -0.030480431 -0.058827225 0.01180351 0.027548602 0.0407886
-0.035450798 -0.034743078 0.02395241 -0.04438501 0.0043241987 -0.04818228 0.03452302 -0.0053877663
-0.04138754 -0.028037827 -0.00066128105 -0.049895715 0.02416747 0.0010474429 -0.015455032 -0.01170852
0.0076767663 0.0021352235 0.012919666 -0.027161557 -0.03253239 -0.040641543 -0.04995571 -0.021506727
0.04768558 -0.027543629 -0.010486362 -0.015755879 -0.062517546 -0.03959516 -0.015827822 -0.01619127
-0.042331878 0.013084874 0.050797697 -0.023657585 0.04219814 -0.026767667 -0.044418354 0.031812146
0.02086107 0.033211797 0.036990583 0.000679719 -0.02699022 -0.042378735 -0.05888659 -0.02561213
0.017925512 0.0065563815 -0.005432661 -0.013766217 -0.06681959 -0.006068501 -0.01268192 0.024589034
0.042434897 -0.01649018 -0.03792856 0.022389887 0.030910125 0.028943064 0.039681535 -0.051141925
0.014403906 -0.027880743 -0.006793911 -0.028455772 -0.03598691 -0.04323109 -0.007636711 -0.03194407
-0.0022789675 -0.00554611 0.022794541 -0.0020419394 0.019721815 0.036563713 0.03463438 0.013752123
0.0036769907 -0.06678676 -0.04760271 -0.05572335 -0.040157568 -0.04241808 -0.008933937 -0.0045349356
0.023676457 0.026467439 -0.007382136 0.041898448 0.022241792 0.0034110486 0.01555628 0.017534576
-0.05368311 0.011195957 -0.049284067 0.005329956 -0.032683607 -0.039795026 -0.00069883256 -0.046141338
0.04669876 -0.03716259 -0.017161164 -0.04636875 0.0004667005 -0.058123585 -0.034582507 0.031366494
-0.018411336 -0.01316274 -0.039591033 -0.03036646 0.038001318 -0.0025777637 0.0060723945 -0.0045382865
0.024600282 0.02289163 -0.01489887 -0.05619585 0.003765801 0.02558149 0.015962314 0.027050575
-0.032566838 0.026585573 -0.01838097 -0.03449385 -0.04072863 -0.009693201 0.0024263787 -0.044018168
-0.013908803 0.033226825 -0.009340909 0.028283056 -0.010807535 -0.011219919 3.0027093e-05 -0.042931728
-0.018239157 0.0049129175 0.012654335 0.026280988 0.029563284 0.0032861412 0.013139684 0.03640827
00000000: 61c6 34bd 5bd3 0cbc ce74 7dbc dab3 f2bc
00000010: 2184 25bd 384b 033d 8ae4 aa3b 3f5b 113b
00000020: 155b 0b3d 59fd d13c 70db 903b 693f a63c
00000030: 7fd8 8fba a687 f13c 8df8 26bc 1236 a63c
00000040: b239 5639 c1a8 0bbc d7a2 1dbd 472f 083d
00000050: 510d 963c 784e 6ebd a40c 013d 2895 09bc
00000060: 35c8 38bd 5c50 30bd c655 473d 4846 80bc
00000070: 2c7c 0cbd 6558 053d 0087 2a3d d3e5 bfbb
00000080: 71be c5bb 9798 3dbd 5d7e dc3b eef4 4cbd
00000090: bdef 013c b97d 09bd af4a 46bd 1aaa b2bc
000000a0: e47b a3bc 5269 3abd a9a9 93ba ab25 fc3c
000000b0: c454 4bbb a3bd 50bc d847 3d3c e561 21bc
000000c0: 93a0 3c3d 6d9c 07bd 6621 43bc f33c fdbc
000000d0: 3934 f1bc 2ec0 253d fd5f ddbc cabc 3ebd
000000e0: 68f8 f6bc 8940 2abd 90e4 81bb cfd5 9c3c
000000f0: 23ac 9cbc 9b10 85bd cb15 00bc f97a 493d
00000100: 3806 9d3c 3d30 31bd d47e 0b3c be36 393d
00000110: 2c9d 44bc a31a b73c aeb8 17bd 84fb 98bc
00000120: cd14 223d 3ead dabb f82d 373d 8599 12bd
00000130: bbbf 5bbc 7f2f 9abb 18cb 613a c647 073a
00000140: 34ce 8abc d391 0d3d 4032 9dbc a018 f33b
00000150: 6f16 09bd 56c0 c1bc 1e62 1cbd e298 9d3c
00000160: bfab c03c 652f 10bd aa0f d53c 8f38 033d
00000170: f251 483d 9b56 5bbd ffc1 f5bb eb77 83bb
00000180: 59be 67bb 0a58 a03c 870a 6bbd 19b2 f9bc
00000190: d1f4 70bd 8263 413c 9bad e13c f211 273d
000001a0: db34 11bd c24e 0ebd d837 c43c 0ecd 35bd
000001b0: 02b2 8d3b c85a 45bd 0368 0d3d dc8b b0bb
000001c0: fb85 29bd 96af e5bc d259 2dba 735f 4cbd
000001d0: dcfa c53c 5a4a 893a 1a37 7dbc 18d5 3fbc
000001e0: 628d fb3b 1bef 0b3b 02ad 533c ea81 debc
000001f0: af40 05bd bf77 26bd 5c9e 4cbd e02e b0bc
00000200: f451 433d 2da3 e1bc fdce 2bbc 7912 81bc
00000210: 3309 80bd 892e 22bd 59a9 81bc 8ea3 84bc
00000220: 3164 2dbd f061 563c 3f11 503d 8dcd c1bc
00000230: f5d7 2c3d de47 dbbc 05f0 35bd 744d 023d
00000240: d6e4 aa3c 1809 083d 7083 173d 2c2f 323a
00000250: 981a ddbc 5395 2dbd 1133 71bd 88d0 d1bc
00000260: 86d8 923c ead6 d63b 7704 b2bb b38b 61bc
00000270: b6d8 88bd 47da c6bb d4c7 4fbc f16e c93c
00000280: 37d0 2d3d 6a16 87bc fa5a 1bbd ff6a b73c
00000290: 3b37 fd3c 011a ed3c 1b89 223d 327a 51bd
000002a0: 5cfe 6b3c 2866 e4bc 759f debb 141c e9bc
000002b0: 0367 13bd 1513 31bd 603d fabb c9d7 02bd
000002c0: bb5a 15bb 25bc b5bb 9ebb ba3c 0fd2 05bb
000002d0: a58f a13c d5c3 153d c8dc 0d3d 9650 613c
000002e0: abf9 703b 7fc7 88bd 0ffb 42bd 2b3e 64bd
000002f0: 437c 24bd 95be 2dbd a65f 12bc cc99 94bb
00000300: 21f5 c13c 3ed2 d83c d8e5 f1bb b59d 2b3d
00000310: 6b34 b63c e68b 5f3b c4df 7e3c aca4 8f3c
00000320: d2e2 5bbd 3f6f 373c 17de 49bd e9a6 ae3b
00000330: 3fdf 05bd 1c00 23bd dc31 37ba b3fe 3cbd
00000340: 3347 3f3d cd37 18bd 9295 8cbc 29ed 3dbd
00000350: 7baf f439 ff12 6ebd 63a6 0dbd 277a 003d
00000360: 5fd3 96bc 88a8 57bc 352a 22bd 15c3 f8bc
00000370: 45a7 1b3d b3ef 28bb f0fa c63b e8b5 94bb
00000380: 8886 c93c 3a87 bb3c 641a 74bc 9f2d 66bd
00000390: a8cb 763b 4690 d13c 66c3 823c 2b99 dd3c
000003a0: ce64 05bd fdc9 d93c b093 96bc 6c49 0dbd
000003b0: 10d3 26bd 3bd0 1ebc e103 1f3b 654c 34bd
000003c0: c0e1 63bc da18 083d 9d0a 19bc deb1 e73c
000003d0: 1612 31bc c0d3 37bc b1e2 fb37 2ed9 2fbd
000003e0: 496a 95bc 8afc a03b 2154 4f3c 3a4b d73c
000003f0: b32e f23c 4d5c 573b d447 573c d720 153d

fc2.bias f4 [300]
-0.06462119 0.011515428 0.009979617 0.043186497 -0.04053135 -0.015629899 0.008922535 0.03207935
0.019736279 0.040395457 -0.058008112 -0.02407982 -0.011765989 -0.079329535 -0.020606652 -0.03116982
-0.051271044 -0.020451305 0.025697434 0.011300181 0.032599833 0.0045476025 -0.020789292 0.04471441
0.009858114 -0.0011748573 0.06878758 -0.0114752045 -0.027595008 0.0111594 0.031200904 0.033823576
0.0447605 0.03496346 0.006528502 0.017125873 -0.00832209 -0.035028365 -0.028195014 7.279992e-05
-0.01218964 -0.046201296 -0.03155809 0.030199805 -0.012430191 -0.017854553 -0.037132967 -0.021037633
-0.08096042 0.012493747 0.01810369 -0.04828681 0.022323847 0.046520688 -0.020112423 0.023673741
-0.028134516 -0.03342837 -0.023001222 0.033937138 -0.027420597 -0.013345046 -0.013044681 -0.0032695134
-0.017731037 -0.014154133 -0.05828911 -0.018255955 0.004075567 0.025165927 -0.0034934427 -0.047970798
0.038309716 0.036068626 -0.062373515 -0.044085845 0.0033982326 0.00340119 -0.013105002 -0.03285363
0.019592252 0.031427998 -0.03491998 -0.04508203 -0.013765187 -0.014777752 -0.061541777 -0.029555699
0.02395799 -0.016786186 0.031838432 0.05692532 -0.011175377 -0.00645591 0.033347566 -0.0076217116
0.039135654 -0.0072613666 -0.07025912 -0.028566793 -0.0015026819 -0.023783524 -0.004036915 -0.041540723
-0.009569572 -0.05519747 0.027145334 -0.0007918741 -0.04894408 -0.024167195 -0.040629867 -0.046387766
0.026687479 0.0222631 -0.054723322 -0.047874995 -0.019645711 0.005274192 -0.007252027 -0.039335035
0.0036644018 0.0063855927 -0.010547719 0.0006446755 -0.0027673284 0.046985283 0.0027715315 -0.0066598207
-0.046175025 -0.0067444523 -0.016080096 -0.015712555 -0.009812816 -0.03401058 0.008914157 -0.0036749959
-0.025756612 0.015394062 -0.042723216 -0.025637614 0.009878169 0.03770797 0.004348252 0.038476992
0.020417247 0.020048266 -0.026578119 0.03276248 -0.015833758 0.029015586 -0.042368013 -0.044150673
-0.01153364 -0.031188127 -0.006274865 0.0421321 0.010657726 -0.0396493 0.028751738 0.031383626
-0.013079642 -0.03466307 -0.04155857 0.021090219 0.036334675 -0.020826211 -0.009753218 -0.040460154
-0.0016080686 -0.018822653 -0.029031685 -0.044054743 0.013852517 0.023769597 0.027213076 0.03955543
-0.014470481 -0.060652643 -0.03706299 0.0522679 -0.033499423 0.03462355 0.04120234 0.035484515
0.041527685 -0.005307457 -0.055792645 -0.007546803 -0.024954261 -0.050068285 -0.03481707 0.013764802
-0.023620928 -0.011968075 -0.046771843 -0.054350413 0.0027851625 -0.04136607 0.0022465992 -0.043147884
-0.041254323 0.02950345 -0.040582694 0.0084289955 -0.0059880745 0.039523456 -0.012355549 0.017028507
0.03656067 0.027805362 -0.0295515 -0.03591779 -0.053307828 0.054064322 -0.020135377 0.016311437
-0.002742294 0.024644991 0.0022940878 0.057395015 0.034279387 0.025460476 0.042651456 0.008265995
-0.034136683 0.023025868 -0.06459264 -0.011523172 -0.03406845 -0.05129804 0.030700514 -0.0458852
-0.016029531 -0.032674618 0.029034916 -0.015373074 0.0074288636 0.03388244 -0.028984385 0.0067597907
-0.0075122514 -0.015911218 -0.02149485 -0.041705593 -0.041150767 0.01576531 -0.022672761 0.040314216
-0.018364903 -0.03413794 -0.0209556 0.031346817 -0.030684246 -0.032337856 -0.033705946 0.031582326
00000000: 1d58 84bd 35ab 3c3c 8c81 233c 53e4 303d
00000010: 3304 26bd 460a 80bc d32f 123c a365 033d
00000020: faad a13c b575 253d ea99 6dbd 0b43 c5bc
00000030: 22c6 40bc 8677 a2bd 48cf a8bc da57 ffbc
00000040: 9601 52bd 7f89 a7bc 6d83 d23c 6524 393c
00000050: 6787 053d 0e04 953b 4e4e aabc 7526 373d
00000060: ed83 213c abfd 99ba 81e0 8c3d 7f02 3cbc
00000070: ed0e e2bc ebd5 363c 0a99 ff3c 978a 0a3d
00000080: c956 373d d835 0f3d 0bed d53b 8f4b 8c3c
00000090: 6059 08bc e779 0fbd 3bf9 e6bc 29ac 9838
000000a0: 0eb7 47bc 923d 3dbd 0e43 01bd 9565 f73c
000000b0: 00a8 4bbc b643 92bc bd18 18bd 1d57 acbc
000000c0: 94ce a5bd 93b2 4c3c 314e 943c 64c8 45bd
000000d0: 80e0 b63c 7a8c 3e3d cfc2 a4bc 6fef c13c
000000e0: 5b7a e6bc 30ec 08bd 0f6d bcbc ab01 0b3d
000000f0: 29a1 e0bc 2ea5 5abc 5cb9 55bc 5545 56bb
00000100: ae40 91bc bde6 67bc 90c0 6ebd 838d 95bc
00000110: 558c 853b c628 ce3c 3ef2 64bb 077d 44bd
00000120: a6ea 1c3d b2bc 133d 5f7b 7fbd 5c93 34bd
00000130: e2b4 5e3b 80e6 5e3b 5db6 56bc 8791 06bd
00000140: ee7f a03c a5ba 003d 4108 0fbd efa7 38bd
00000150: 6187 61bc 621e 72bc 3b13 7cbd cb1e f2bc
00000160: 8c43 c43c 2f83 89bc 0469 023d 862a 693d
00000170: ee18 37bc 198c d3bb 7597 083d 8dbf f9bb
00000180: b54c 203d c2f0 edbb 03e4 8fbd e804 eabc
00000190: a3f5 c4ba aad5 c2bc 1948 84bb 9b26 2abd
000001a0: b2c9 1cbc be16 62bd e45f de3c c595 4fba
000001b0: 9679 48bd 48fa c5bc 816b 26bd 1901 3ebd
000001c0: b39f da3c 1b61 b63c 9025 60bd 9218 44bd
000001d0: 0bf0 a0bc 21d3 ac3b 69a2 edbb c61d 21bd
000001e0: 7626 703b 3c3e d13b 57d0 2cbc 71ff 283a
000001f0: 115c 35bb a473 403d 95a2 353b a03a dabb
00000200: 0622 3dbd 9100 ddbb 68ba 83bc 9eb7 80bc
00000210: efc5 20bc ae4e 0bbd af0c 123c 33d8 70bb
00000220: 88ff d2bc 6037 7c3c 8afe 2ebd f905 d2bc
00000230: 0bd8 213c ac73 1a3d c87b 8e3b 0d9a 1d3d
00000240: 1242 a73c 433c a43c 5bba d9bc f331 063d
00000250: ccb5 81bc 18b2 ed3c 158a 2dbd 56d7 34bd
00000260: 98f7 3cbc 3e7e ffbc 629d cdbb b592 2c3d
00000270: be9d 2e3c 4e67 22bd c488 eb3c 1e8c 003d
00000280: ff4b 56bc ddfa 0dbd 5239 2abd 65c5 ac3c
00000290: abd3 143d bb9b aabc f6cb 1fbc 8cb9 25bd
000002a0: d4c5 d2ba f731 9abc dbd3 edbc bf72 34bd
000002b0: abf5 623c 75b8 c23c f5ed de3c e004 223d
000002c0: 9915 6dbc e86e 78bd 5dcf 17bd de16 563d
000002d0: b136 09bd 6cd1 0d3d c9c3 283d 3658 113d
000002e0: ef18 2a3d 2dea adbb d486 64bd 2c4b f7bb
000002f0: e16c ccbc 6714 4dbd 589c 0ebd c485 613c
00000300: ad80 c1bc bf15 44bc d593 3fbd 8a9e 5ebd
00000310: 4687 363b 786f 29bd ae3b 133b d6bb 30bd
00000320: 4bfa 28bd 38b1 f13c 0a3a 26bd c519 0a3c
00000330: 9c37 c4bb 59e3 213d ee6e 4abc 5e7f 8b3c
00000340: a4c0 153d 12c8 e33c fd15 f2bc 881e 13bd
00000350: 4f59 5abd 8d72 5d3d f2f2 a4bc 909f 853c
00000360: 0fb8 33bb 4be4 c93c 6858 163b 0917 6b3d
00000370: 8b68 0c3d 7d92 d03c 4bb3 2e3d 196e 073c
00000380: e8d2 0bbd bfa0 bc3c 2549 84bd b0cb 3cbc
00000390: 5c8b 0bbd e51d 52bd a57f fb3c 1ff2 3bbd
000003a0: 5d50 83bc d2d5 05bd a2da ed3c 59df 7bbc
000003b0: d36d f33b 50c8 0a3d a970 edbc 3c81 dd3b
000003c0: 5529 f6bb 3e58 82bc f815 b0bc 7cd3 2abd
000003d0: b58d 28bd 4026 813c 3abc b9bc 8520 253d
000003e0: fe71 96bc 39d4 0bbd 14ab abbc 8565 003d
000003f0: 875d fbbc b374 04bd 3f0f 0abd 785c 013d

fc3.weight f4 [1, 300]
-0.0020571144 -0.0005842295 0.04246856 0.00021512479 -0.0010738826 0.015116632 0.009390503 0.010985081
-0.006385509 0.017580433 -0.002301859 0.0010136617 -0.0014783237 0.016265836 -0.008930133 0.0016456449
-0.00015456711 -0.0015491047 -0.0017627446 -0.0008040268 0.006784339 0.00832782 0.000906644 -0.016369062
0.022164466 0.0003033048 -0.029996894 -0.0016939942 0.0022571567 0.0012615306 -0.0006586501 0.00031188107
-0.0015299886 -0.0017606509 -0.007242478 -0.013301256 0.0010308954 0.00011338403 -0.009034621 -0.009032741
0.0053835446 0.007431614 0.0062533007 -0.002720225 0.0051907566 -7.518645e-05 8.358415e-05 0.0022205138
0.016329335 -1.2856371e-05 0.007522659 -7.334124e-05 0.00016444644 -7.429818e-05 0.0032044973 0.011608461
-0.013522758 0.0005352053 -0.0009980876 0.008504921 0.00486763 -0.0009524581 0.0053587575 0.0026191503
0.0008967272 -0.0033147165 0.0072287824 0.00012262343 -0.0020027398 0.0052400227 0.00076977967 0.008371462
0.0027850803 0.0010744416 0.0079608755 -0.004337019 -0.00024180027 0.0015803408 -0.016624335 -0.0031494782
-0.0021072386 0.00069212134 0.000711371 0.0041849576 0.030096285 -0.0013097086 -0.0020571859 0.037728727
-0.019624917 5.7454738e-05 0.0020888401 0.008942465 -0.00052287057 -0.00785024 0.049315803 -0.008439572
0.0018152195 0.0052812146 0.004928084 0.0053804247 0.010853938 0.0035907077 0.018125234 -0.0063281525
0.0134705985 0.0019934794 0.0017227427 0.00040380648 -0.0022918684 -0.001473625 -0.0025005515 -0.0006402589
0.0003258381 0.018093776 0.00703889 0.02263118 0.0008898045 -0.000119011645 -0.013366501 0.007490596
0.0012958437 -6.4207095e-05 0.0009411518 -0.0009807177 0.017020183 0.00091497705 -0.0009345251 0.009217213
0.00078687497 -0.0042438894 0.014933277 -0.003419662 -0.003064654 0.007439623 0.03410147 0.0042633247
0.0001945471 -0.016373634 0.008311793 -0.0022880994 -0.0063573085 -0.0010134387 0.006258847 -0.00033823444
0.0029497258 0.00043541825 0.0012420481 0.0014192855 -0.006602982 -0.00244303 0.001572472 0.017396027
-0.001508699 -0.00016491243 -0.0012152011 -0.0013315692 0.0019181647 -0.0015445858 -0.0020814296 0.0051553594
-0.0009140767 0.015874177 -0.0010592185 0.0063076974 0.0012974304 -0.0017724078 -0.0020461516 0.003984229
0.00017998197 0.004852765 -0.0012467618 0.036049232 0.0048672603 -0.001871743 0.0045083803 0.0076619694
-0.00070370984 0.009649417 0.013140811 0.005797325 -0.0027166617 -3.3067634e-05 0.000272729 -3.4104596e-05
-0.0004861692 0.020826273 -0.007385427 -0.0027139327 0.002770803 0.0016220553 -0.002327647 -0.0019170059
0.008592924 0.0005866635 0.0010345071 0.008227133 0.004183325 0.00013481444 0.0056173373 0.0027660802
0.007942485 0.0018978976 -0.0036007597 0.0076748743 0.008615018 -0.00040978187 -0.00024250713 -0.0016811412
-0.00016367165 8.1034144e-05 -0.00022015293 -0.0065606306 -0.0022040186 -0.014777579 0.0062623937 0.004130536
0.0051105693 0.004969484 0.013798478 0.021092094 0.00032041175 -0.0018526342 0.009336506 -0.0011190815
0.0018408777 -0.0024428603 -0.009062529 -0.0047210995 0.0016496229 0.007533724 -0.0025914537 0.0010870239
0.01874859 0.0010073594 -0.004046045 0.0024303012 -0.015377742 0.037769537 -0.0003916606 0.0017838066
-0.0015108349 -0.010178168 0.00028896736 0.0153565565 0.015752489 -0.005164516 -0.0016561513 -0.004299806
0.001963856 -0.0043996945 -0.0016397662 8.598404e-05 0.005434239 0.0006908691 0.021029146 -0.002118822
00000000: a7d0 06bb fa26 19ba 83f3 2d3d 1f93 6139
00000010: 85c1 8cba c0ab 773c a0da 193c c5fa 333c
00000020: 883d d1bb d704 903c c9da 16bb d8dc 843a
00000030: 50c4 c1ba ee3f 853c b14f 12bc aeb2 d73a
00000040: 4b13 22b9 540b cbba e50b e7ba 53c5 52ba
00000050: 294f de3b 6971 083c d9ab 6d3a 6918 86bc
00000060: 4192 b53c e204 9f39 0cbc f5bc 0309 deba
00000070: ceec 133b f159 a53a 43a9 2cba f883 a339
00000080: e689 c8ba a4c5 e6ba 4f52 edbb 83ed 59bc
00000090: 1c1f 873a 96c8 ed38 f205 14bc 10fe 13bc
000000a0: 7268 b03b e684 f33b 7de8 cc3b cd45 32bb
000000b0: 3917 aa3b 6bad 9db8 e649 af38 0a86 113b
000000c0: 19c5 853c b1b1 57b7 a380 f63b c7ce 99b8
000000d0: 416f 2c39 88d0 9bb8 8b02 523b 6a31 3e3c
000000e0: 8f8e 5dbc 054d 0c3a 43d2 82ba 3958 0b3c
000000f0: a480 9f3b 62ae 79ba 8498 af3b 0da6 2b3b
00000100: 5812 6b3a b73b 59bb 6cdf ec3b 7a94 0039
00000110: 6640 03bb 7fb4 ab3b 0acb 493a 7528 093c
00000120: e585 363b 47d4 8c3a 556e 023c 8d1d 8ebb
00000130: c48b 7db9 7023 cf3a c22f 88bc 7a67 4ebb
00000140: 9919 0abb 7a6f 353a 4d7b 3a3a f821 893b
00000150: 7c8c f63c 87aa abba dad1 06bb 7089 1a3d
00000160: 6fc4 a0bc 8efb 7038 ece4 083b 6b83 123c
00000170: 4011 09ba 4b9e 00bc 5eff 493d 2146 0abc
00000180: a9ec ed3a 0a0e ad3b c47b a13b 464e b03b
00000190: b7d4 313c 1452 6b3b 5f7b 943c 645c cfbb
000001a0: c9b3 5c3c 09a5 023b a7cd e13a fdb5 d339
000001b0: 2c33 16bb a626 c1ba 4be0 23bb 0cd7 27ba
000001c0: 40d5 aa39 6639 943c 7da6 e63b 0665 b93c
000001d0: c541 693a e495 f9b8 2bff 5abc ac73 f53b
000001e0: 4dd9 a93a eca6 86b8 a1b7 763a 6d8b 80ba
000001f0: e96d 8b3c 12db 6f3a ebfa 74ba cb03 173c
00000200: 4946 4e3a 5310 8bbb b4aa 743c 681c 60bb
00000210: 5dd8 48bb 15c8 f33b fcad 0b3d 5cb3 8b3b
00000220: 57ff 4b39 0022 86bc 302e 083c f0f3 15bb
00000230: f850 d0bb 5cd5 84ba 0417 cd3b 0f55 b1b9
00000240: 3050 413b d948 e439 38cc a23a 5207 ba3a
00000250: d45d d8bb 3e1b 20bb 681b ce3a 1d82 8e3c
00000260: 8abf c5ba 58ec 2cb9 6247 9fba 0c88 aeba
00000270: ed6a fb3a b373 caba 9868 08bb 4aee a83b
00000280: a69e 6fba 900a 823c 7ad5 8aba cdb0 ce3b
00000290: 8a0e aa3a 2350 e8ba ba18 06bb 238e 823b
000002a0: 8bb9 3c39 f103 9f3b 626a a3ba 5ca8 133d
000002b0: 8a7d 9f3b 4655 f5ba 09bb 933b 4211 fb3b
000002c0: 2b79 38ba 9718 1e3c 8e4c 573c 7df7 bd3b
000002d0: 050a 32bb 1ab2 0ab8 11fd 8e39 880b 0fb8
000002e0: 87e4 feb9 dc9b aa3c 7401 f2bb 3cdc 31bb
000002f0: 5c96 353b 259b d43a 708b 18bb 0b44 fbba
00000300: 56c9 0c3c 52ca 193a 4c98 873a 19cb 063c
00000310: 4614 893b fa5c 0d39 a411 b83b 2047 353b
00000320: 3221 023c e0c2 f83a b9fa 6bbb 837d fb3b
00000330: 0126 0d3c fed7 d6b9 8349 7eb9 bd59 dcba
00000340: 469f 2bb9 e0f0 a938 dad8 66b9 8ffa d6bb
00000350: 4c71 10bb a91d 72bc c434 cd3b 7359 873b
00000360: 9076 a73b 0ed7 a23b 0313 623c 54c9 ac3c
00000370: f0fc a739 17d4 f2ba 25f8 183c 25ae 92ba
00000380: 9b49 f13a 6518 20bb 007b 14bc 74b3 9abb
00000390: 2938 d83a 75dd f63b 61d5 29bb 787a 8e3a
000003a0: a596 993c 5f09 843a af94 84bb b045 1f3b
000003b0: edf2 7bbc 3bb4 1a3d cc57 cdb9 9ece e93a
000003c0: 3507 c6ba 55c2 26bc 8b80 9739 119a 7b3c
000003d0: 5d0b 813c 1a3b a9bb 3713 d9ba 63e5 8cbb
000003e0: 09b4 003b 502b 90bb 6ced d6ba 5452 b438
000003f0: b311 b23b 711b 353a 5145 ac3c efdb 0abb
