DDPG/weights/target_critic.pth (torch, 492311 bytes, 5 tensors)

fc1.weight f4 [400, 4]
0.08736049 -0.23633474 0.2138433 0.19669308 -0.39754444 0.026681034 -0.18029062 -0.17881365
-0.12536697 -0.28344867 0.00086298975 -0.14719397 -0.0989978 0.029651964 -0.32439175 -0.08238266
0.107630074 0.057270784 0.28022683 -0.10830014 0.25987363 -0.43412706 0.014660859 -0.12353852
-0.33598325 -0.17201181 -0.2815636 0.061282005 0.21389419 0.2034508 -0.23634624 -0.21008512
-0.27722624 0.07431571 -0.24238643 0.037638236 0.27731317 -0.17460725 0.29624653 -0.016510596
0.05925703 -0.20022179 0.10666861 0.115016274 0.25972304 -0.033832744 -0.4077419 0.036287896
-0.34667593 0.23804821 0.216066 0.077398986 -0.052337974 -0.10848054 -0.34937942 0.007264603
0.068528846 -0.04408249 0.43462414 0.1017254 0.19535664 0.024312612 0.15749972 0.10589278
-0.16432972 0.19722967 -0.18498702 0.05212515 0.12283413 0.57119197 -0.001390723 0.12460754
0.0073109386 -0.22248925 0.32130006 -0.021958219 -0.22869076 -0.165626 0.19457746 0.14771803
0.16002458 0.024089351 0.24611361 -0.046084914 -0.13316013 0.17282455 0.18911782 -0.10160103
-0.16011813 0.0055968184 -0.26500508 0.0013744087 -0.28163147 0.231123 0.30138233 0.21211162
-0.2923518 0.14538406 0.34130418 -0.034271292 -0.20593517 0.10616552 -0.37098262 0.14612722
-0.20122196 -0.0793268 0.14016116 -0.13487345 -0.32935825 -0.042277902 -0.27862424 0.13591883
-0.34635603 0.17025232 0.3606036 -0.07986983 0.2749241 0.1984909 -0.35910895 0.022374263
-0.06902609 0.226302 -0.41237834 -0.097406186 0.1675053 -0.072833784 -0.11631458 0.09792324
0.086434096 0.011781225 0.37776998 0.111952156 -0.13427444 -0.05236919 0.38801175 -0.1173766
0.19555156 -0.1286215 -0.0900502 0.1962794 -0.08400634 -0.061969023 0.26225048 -0.2319684
-0.09447786 -0.04870483 0.17026657 0.07546442 0.18410711 -0.22686411 0.41488206 -0.17336862
-0.014174917 0.061805468 -0.13527963 0.14138943 0.024490034 -0.02378083 0.18363358 -0.16143698
-0.22729272 -0.06233083 0.34885347 -0.042850867 -0.285612 -0.028326534 0.15955602 -0.039569523
-0.10111486 0.032797977 0.1264789 -0.20909804 0.020445852 0.15669467 -0.23156305 0.02333809
0.23885511 0.011940546 -0.23260742 -0.04164466 -0.4860244 -0.33791015 0.013264566 -0.032088846
-0.25385332 0.19127248 -0.087589316 0.12047807 0.26883942 -0.086287156 -0.10447083 0.060367357
0.1751073 0.20042557 0.09414006 -0.12698416 0.037973687 0.16661935 -0.4227012 0.1109865
0.17115428 0.16079298 -0.375061 -0.038089562 0.22501129 -0.06452648 -0.3537147 0.020602567
-0.2847456 -0.019676661 -0.42682207 0.16555259 0.39611858 -0.5373328 -0.0019070385 0.026249843
0.19156161 0.04914095 -0.41629383 0.021487327 0.010061485 -0.0049075717 -0.0014906571 0.15103367
-0.004949706 0.17558469 0.4423463 -0.004797317 -0.3789543 0.07221637 -0.16107532 -0.21319388
-0.42475823 -0.10738623 -0.2090657 -0.10102624 -0.32072994 -0.040537093 -0.3428657 -0.13695881
0.008864265 -0.18238561 0.15506335 0.007816235 -0.2513824 -0.15633565 0.06530778 -0.08677176
-0.2722289 0.16768044 -0.25575644 -0.14429967 -0.31272975 0.055562045 -0.43645662 -0.03521369
00000000: 0eea b23d bc01 72be bdf9 5a3e e969 493e
00000010: f28a cbbe 2f92 da3c 1b9e 38be ed1a 37be
00000020: 3360 00be 2f20 91be 433a 623a 04ba 16be
00000030: 5cbf cabd ade8 f23c ad16 a6be 3db8 a8bd
00000040: 286d dc3d c594 6a3d e479 8f3e 77cc ddbd
00000050: 280e 853e e745 debe 1934 703c c301 fdbd
00000060: ff05 acbe dd23 30be 1b29 90be d702 7b3d
00000070: 1407 5b3e 6855 503e c004 72be 8e20 57be
00000080: 99f0 8dbe d632 983d 2634 78be 8d2a 1a3d
00000090: fefb 8d3e 3ecc 32be a0ad 973e 3b41 87bc
000000a0: 80b7 723d f106 4dbe 1275 da3d a78d eb3d
000000b0: 6bfa 843e 3494 0abd 8cc3 d0be 9ea2 143d
000000c0: 827f b1be e9c2 733e 6840 5d3e 5c83 9e3d
000000d0: 5860 56bd 0c2b debd dce1 b2be e80b ee3b
000000e0: da58 8c3d d78f 34bd 0e87 de3e 6855 d03d
000000f0: 920b 483e 3e2b c73c 9b47 213e 50de d83d
00000100: 0d46 28be 93f6 493e 3d6d 3dbe 2e81 553d
00000110: 7690 fb3d a339 123f ec48 b6ba 3d32 ff3d
00000120: 9990 ef3b 39d4 63be 7181 a43e b9e1 b3bc
00000130: e92d 6abe dd99 29be 503f 473e 6543 173e
00000140: 7cdd 233e 0857 c53c 3505 7c3e 89c3 3cbd
00000150: 215b 08be ebf8 303e 1aa8 413e 3314 d0bd
00000160: 02f6 23be 8465 b73b bfae 87be 8125 b43a
00000170: 0032 90be 82ab 6c3e c94e 9a3e ca33 593e
00000180: 23af 95be 8fdf 143e 6cbf ae3e 0e60 0cbd
00000190: abe0 52be 4f6d d93d 6ff1 bdbe 60a2 153e
000001a0: 210d 4ebe 1776 a2bd 6886 0f3e 441c 0abe
000001b0: a5a1 a8be 982b 2dbd d6a7 8ebe 4e2e 0b3e
000001c0: 9455 b1be a056 2e3e 09a1 b83e cb92 a3bd
000001d0: dac2 8c3e 3341 4b3e 21dd b7be 3b4a b73c
000001e0: 8d5d 8dbd b6bb 673e 4123 d3be e57c c7bd
000001f0: 8286 2b3e e129 95bd 5736 eebd fb8b c83d
00000200: 5c04 b13d 0a06 413c 116b c13e 2c47 e53d
00000210: 3d7f 09be 1381 56bd 7aa9 c63e 2563 f0bd
00000220: ab3e 483e 5bb5 03be 3d6c b8bd 78fd 483e
00000230: 840b acbd 3bd3 7dbd b245 863e 2089 6dbe
00000240: 9c7d c1bd b77e 47bd 5c5a 2e3e 178d 9a3d
00000250: 9386 3c3e 114f 68be 6c6b d43e 8b87 31be
00000260: e93d 68bc bb27 7d3d be86 0abe 64c8 103e
00000270: 539f c83c 04d0 c2bc 710a 3c3e bc4f 25be
00000280: 6cbf 68be 9d4e 7fbd ec9c b23e 6484 2fbd
00000290: bc3b 92be 0c0d e8bc a762 233e a713 22bd
000002a0: 4f15 cfbd 2c57 063d af83 013e cc1d 56be
000002b0: 0f7e a73c 9174 203e dd1e 6dbe 862f bf3c
000002c0: 6f96 743e 48a2 433c a430 6ebe 9793 2abd
000002d0: 31d8 f8be 8f02 adbe 9f53 593c 986f 03bd
000002e0: 10f9 81be efdc 433e 0762 b3bd 35bd f63d
000002f0: 52a5 893e 52b7 b0bd cdf4 d5bd c343 773d
00000300: 544f 333e 5c3c 4d3e 81cc c03d 2308 02be
00000310: 4c8a 1b3d 439e 2a3e 4b6c d8be e44c e33d
00000320: 1143 2f3e eaa6 243e ff07 c0be cd03 1cbd
00000330: 5c69 663e 7626 84bd 181a b5be b7c6 a83c
00000340: 2dca 91be f330 a1bc 6c88 dabe 9e86 293e
00000350: 0ed0 ca3e a48e 09bf 98f5 f9ba e909 d73c
00000360: ba28 443e 0548 493d 7724 d5be 3106 b03c
00000370: edd8 243c b2cf a0bb 2762 c3ba 92a8 1a3e
00000380: 2531 a2bb 79cc 333e 377b e23e d032 9dbb
00000390: 4c06 c2be 2de6 933d eef0 24be 7f4f 5abe
000003a0: e979 d9be 50ed dbbd 5215 56be d8e6 cebd
000003b0: b736 a4be 390a 26bd 188c afbe ee3e 0cbe
000003c0: 6c3b 113c 4bc3 3abe edc8 1e3e aa0f 003c
000003d0: 32b5 80be 7416 20be 16c0 853d 64b5 b1bd
000003e0: 9661 8bbe 6cb4 2b3e 82f2 82be 4bc3 13be
000003f0: 1d1e a0be 0795 633d 3e77 dfbe 3b3c 10bd

fc1.bias f4 [400]
-0.1950218 -0.26584977 0.28551105 0.11438594 0.1634103 0.2212048 -0.29217774 -0.28182802
-0.062013853 -0.26348197 0.09594048 0.3247187 0.35194275 0.11496422 0.24600157 -0.25093105
0.17571951 0.20586832 0.33891207 -0.17109232 0.3382317 -0.3435726 -0.34590983 -0.30213246
-0.3502412 -0.116312444 0.28164917 -0.080141865 0.0045833075 -0.010858842 -0.095491804 0.28560475
0.046765056 0.08339287 -0.067492954 0.27812934 0.06996942 0.0123104565 -0.2195649 -0.275577
0.106270015 -0.33467495 0.09188317 0.28881428 -0.04887604 -0.07699959 0.11344368 -0.1381413
0.12827209 0.21557736 -0.29480177 -0.009410197 0.2124229 0.39232916 -0.31402707 0.016412258
-0.1087546 0.3832849 0.4225779 -0.27277085 -0.016750101 0.3930497 0.02362591 -0.2796961
-0.028322387 -0.11142569 -0.19699757 0.2430266 0.23245676 -0.12822247 0.18608853 0.15845153
-0.0687595 0.22756277 0.33962846 0.13073783 0.13860011 0.0383411 -0.014629423 0.35583055
-0.16394739 -0.0048500556 0.27753472 -0.004001398 -0.03984568 0.041723892 0.34495288 -0.34527618
0.27031818 -0.3065825 0.15990034 0.16071147 -0.1173136 0.07922711 0.07553423 0.19513677
-0.17304978 0.17977478 -0.2932855 -0.10385372 0.069775574 -0.09013186 0.028803075 -0.04263998
0.06143615 -0.20577024 -0.08308874 0.27662063 0.14864717 -0.37616673 0.079327404 0.2561487
-0.05838179 0.09417021 0.33699554 -0.091688834 0.22705854 -0.3146698 0.028738184 0.19389518
-0.25672466 0.055522315 0.2919188 -0.366963 0.3126013 -0.06837624 0.32992283 -0.3319438
-0.14429598 0.28615665 0.14548062 -0.21913065 0.30735186 0.348622 -0.20633669 -0.13089563
0.39152512 0.35365775 0.13432704 0.08910147 0.113415845 0.043338597 -0.32694778 -0.17178269
0.0025119039 -0.08242232 -0.22371288 -0.25954846 -0.043027177 -0.21962975 0.0055501913 -0.28710422
-0.20085794 0.12000396 0.18199834 0.117716335 0.16736597 0.0733777 0.28015572 0.120264664
-0.1133086 -0.1814918 -0.009353888 -0.2522718 0.2153414 0.25240377 0.3646844 -0.11113874
-0.059478674 0.05237882 0.04417647 0.21275225 0.174171 0.36575276 0.116126046 0.17362145
0.09776968 -0.2965304 -0.010068935 -0.27878624 -0.28477055 -0.18035239 0.31382546 0.10177016
0.27524626 -0.20060903 0.4183202 0.3859391 0.013410606 0.30951914 -0.36956424 -0.09999795
-0.18495612 -0.04356738 0.26152351 0.35985258 -0.1602231 -0.13920689 0.31468388 0.14087547
-0.036865104 0.41166013 -0.042356826 -0.18003902 0.04839682 0.032558184 0.083552696 -0.15457341
-0.12770383 -0.17806052 -0.23683564 0.09505248 -0.11139865 -0.30184397 0.2523841 0.0040139295
-0.19358231 -0.17154332 0.3644101 -0.23507342 -0.1251879 -0.06758274 -0.027662607 -0.2531036
0.32381195 0.24660903 0.35045525 -0.0087186005 -0.057911254 0.034316827 -0.29668686 0.2097061
0.1557125 -0.35156533 -0.04157345 -0.19921699 -0.15685154 0.3208283 -0.11045436 -0.33747646
-0.270733 -0.14452583 0.2354371 -0.09400111 0.17899135 -0.0412261 -0.28052413 -0.19635588
0.16884492 0.24157423 -0.08394303 0.30220005 -0.18352287 0.19153169 -0.14674582 -0.10179028
00000000: cbb3 47be 761d 88be 812e 923e 2d43 ea3d
00000010: 0855 273e 8383 623e 5298 95be c34b 90be
00000020: 3d02 7ebd 1ce7 86be 717c c43d 8841 a63e
00000030: d731 b43e 5c72 eb3d d6e7 7b3e 097a 80be
00000040: d1ef 333e 25cf 523e e285 ad3e d332 2fbe
00000050: b52c ad3e bfe8 afbe 181b b1be 1bb1 9abe
00000060: d152 b3be 3835 eebd 5234 903e 6b21 a4bd
00000070: 922f 963b 49e9 31bc 3591 c3bd c93a 923e
00000080: b78c 3f3d e2c9 aa3d bf39 8abd f866 8e3e
00000090: 214c 8f3d ccb1 493c 9fd5 60be 6e18 8dbe
000000a0: 18a4 d93d 845a abbe 3e2d bc3d 77df 933e
000000b0: 3e32 48bd f6b1 9dbd 2955 e83d ea74 0dbe
000000c0: c259 033e 50c0 5c3e 42f0 96be 3a2d 1abc
000000d0: 6485 593e 5edf c83e 28c8 a0be 0073 863c
000000e0: bbba debd eb3d c43e 215c d83e 9fa8 8bbe
000000f0: 8237 89bc cf3d c93e 208b c13c 5434 8fbe
00000100: 5a04 e8bc 2733 e4bd bbb9 49be f7db 783e
00000110: 2509 6e3e c04c 03be fe8d 3e3e 1e41 223e
00000120: c8d1 8cbd 3706 693e c8e3 ad3e 23e0 053e
00000130: 30ed 0d3e 8f0b 1d3d 3fb0 6fbc 6c2f b63e
00000140: d3e1 27be 37ed 9ebb 0819 8e3e 291e 83bb
00000150: 3935 23bd ace6 2a3d aa9d b03e 0ac8 b0be
00000160: 2567 8a3e 62f8 9cbe eabc 233e 8c91 243e
00000170: 1d42 f0bd d341 a23d b1b1 9a3d efd1 473e
00000180: f633 31be e116 383e 8429 96be 42b1 d4bd
00000190: 7fe6 8e3d 0d97 b8bd 6df4 eb3c 42a7 2ebd
000001a0: 79a4 7b3d 6fb5 52be 6e2a aabd 38a1 8d3e
000001b0: f736 183e ed98 c0be 6876 a23d ec25 833e
000001c0: be21 6fbd 50dc c03d ae8a ac3e 5bc7 bbbd
000001d0: 0982 683e 661c a1be 576c eb3c 758c 463e
000001e0: 6a71 83be 5e6b 633d 6276 953e 93e2 bbbe
000001f0: 470d a03e d808 8cbd a5eb a83e 8af4 a9be
00000200: 53c2 13be 2083 923e dff8 143e c963 60be
00000210: 395d 9d3e 957e b23e ed49 53be 8109 06be
00000220: fb75 c83e a112 b53e 078d 093e d57a b63d
00000230: 9146 e83d d083 313d b365 a7be cde7 2fbe
00000240: c19e 243b 09cd a8bd fd14 65be 89e3 84be
00000250: 443d 30bd 9fe6 60be 61de b53b 53ff 92be
00000260: b4ad 4dbe a3c4 f53d c65d 3a3e 4315 f13d
00000270: fc61 2b3e 0c47 963d 9270 8f3e 524d f63d
00000280: 570e e8bd fdd8 39be 0d41 19bc c529 81be
00000290: 7582 5c3e 113b 813e eab7 ba3e b59c e3bd
000002a0: e99f 73bd 2c8b 563d 63f2 343d badb 593e
000002b0: e259 323e f243 bb3e 7ed3 ed3d d2c9 313e
000002c0: 783b c83d d5d2 97be 2df8 24bc 12bd 8ebe
000002d0: 72cd 91be 4cae 38be bbad a03e e06c d03d
000002e0: 14ed 8c3e 746c 4dbe 112e d63e cf99 c53e
000002f0: 29b8 5b3c 4b79 9e3e 8637 bdbe bacb ccbd
00000300: 2365 3dbe b673 32bd 69e6 853e 993e b83e
00000310: 8611 24be 408c 0ebe 3f1e a13e a941 103e
00000320: ddff 16bd 1ec5 d23e 5a7e 2dbd 265c 38be
00000330: be3b 463d bb5b 053d ad1d ab3d 7e48 1ebe
00000340: cbc4 02be 7f55 36be 0b85 72be e0aa c23d
00000350: fa24 e4bd 4b8b 9abe 7d38 813e 4887 833b
00000360: 713a 46be 0da9 2fbe f693 ba3e 16b7 70be
00000370: 4231 00be d268 8abd b19c e2bc cc96 81be
00000380: aeca a53e 1487 7c3e df6e b33e 76d8 0ebc
00000390: 5a34 6dbd cd8f 0c3d 57e7 97be 32bd 563e
000003a0: 1973 1f3e 5f00 b4be ec48 2abd 8aff 4bbe
000003b0: b19d 20be 9b43 a43e e535 e2bd b7c9 acbe
000003c0: 849d 8abe 94fe 13be 6c16 713e a783 c0bd
000003d0: 8249 373e b3dc 28bd dca0 8fbe 8411 49be
000003e0: afe5 2c3e 3c5f 773e 53ea abbd f7b9 9a3e
000003f0: 6bed 3bbe e220 443e 8944 16be 6c77 d0bd

fc2.weight f4 [300, 400]
-0.016922222 -0.015313177 -0.007744537 -0.0011943376 -0.014997045 -0.0116429655 0.011501622 -0.006477117
0.013968987 0.0025066796 0.017152725 0.0053931875 -0.0015379426 0.008359146 0.010594499 -0.011066799
-0.0012383136 0.003178198 0.016322644 -0.0055813016 0.0094682565 -0.0133992275 0.0018740965 -0.003666696
0.0056412527 0.010981345 -0.0035516366 0.010489916 0.0016560856 0.008369183 -0.0056967763 -0.0045152856
-0.003931041 -0.013599536 0.0060032243 0.0042221905 -0.012461952 -0.014332934 0.0072290148 -0.008235242
-0.0070036715 -0.0027066388 0.008738063 -0.014254232 0.009222719 0.007480735 -0.013388064 0.0036496012
-0.0054886476 -0.012602166 0.0040727425 -0.011876261 0.010575605 -0.0025280109 0.0018562018 -0.006776982
0.0074024177 -0.004118875 -0.010340241 -0.004072391 0.008125224 -0.005215427 -0.0074177017 -0.0015119468
-0.013896437 -0.0028736868 0.014298989 -0.008741666 -0.0016262855 0.015189882 -0.014744705 0.013468437
0.012357696 0.0040713116 -0.014595623 0.010960579 0.017947035 -0.012092131 -0.005157693 0.015141835
0.0022750653 0.010828641 -0.013700554 -0.006179703 0.008464912 -0.014549114 0.014499858 -0.012597661
0.0103047425 0.010530106 -0.01116733 0.0129743265 -0.016093694 -0.014452585 -0.0017827724 -0.0073670307
-0.013429006 -0.008837345 -0.016742645 -0.0019303166 -0.010360776 -0.011609886 -0.0068780486 0.010962113
0.008676168 0.0011555826 -0.01343746 0.0062755756 0.005580184 0.009533819 -0.009690508 0.0035914783
-0.019467354 -0.0023644185 -0.00062275643 0.006764366 -0.012986948 0.015522682 0.017833734 0.006265503
0.006418829 0.015313616 -0.002929596 0.004620389 0.000623529 -0.005306257 -0.008549872 0.0016136734
0.012283903 -0.015199124 -0.002526858 0.011690561 -0.00076445093 -0.00764924 -0.009290721 -0.0077318377
0.0056261593 0.016661355 0.00826319 -0.0035594685 0.01411585 0.018318174 -0.0073625837 -0.01205408
-0.0073346244 0.013855356 -0.0070808427 0.00013368836 0.0029174977 -0.0048254253 0.001354583 0.0010941522
0.017399311 -0.008202913 0.011550608 -0.003649037 0.01003296 -0.005232745 -0.008435743 -0.0072459625
-0.003862794 -0.0043249885 0.016079754 0.00061225 0.013917782 -0.008774124 0.013550096 0.0084386235
0.0007258182 -0.004119949 0.013642737 -0.009689456 -0.008784509 0.005264542 0.014072586 0.013051012
0.008632348 0.01556373 0.008334304 0.014370763 -0.012922812 -0.0128444005 -0.013486997 -0.013583085
0.0013713678 -0.015690047 -0.0017319126 0.014478907 0.007956859 -0.010691694 -0.001227187 -0.008076574
-0.0067997733 -0.014769896 -0.0070746937 -0.0010981748 -0.012358888 -0.012228513 -0.014368592 0.017020468
0.015596618 -0.015226389 0.015772225 -0.013537042 0.0076858625 -0.010954005 -0.0045451038 0.010441067
-0.013488476 0.015667737 -0.011781103 0.009691813 0.0008633677 0.0019740865 -0.015545537 0.018435363
-0.019462625 0.005563932 -0.015153632 -0.0015986684 -0.015264269 -0.0052824654 0.013971038 0.00886651
-0.0043108067 9.887657e-05 0.0059447605 0.0028263384 -0.009759565 -0.018205946 0.012406153 -0.0030953847
-0.0024537302 0.0021155672 -0.006878424 0.0009816327 0.0077001955 -0.011761376 0.013430019 -0.0062467246
-0.001059092 -0.0019703072 0.0009058078 0.0118691325 0.00225501 0.015776172 -0.0074374694 -0.0032778801
-0.018197797 -0.01872089 -0.004459666 -0.0026473927 0.00018344943 0.020142263 -0.0110760555 0.008544875
00000000: 79a0 8abc 1fe4 7abc e3c5 fdbb 528b 9cba
00000010: 2ab6 75bc 23c2 3ebc 4d71 3c3c ff3d d4bb
00000020: 2ede 643c 1b47 243b df83 8c3c 56b9 b03b
00000030: ca94 c9ba cdf4 083c 8d94 2d3c 8551 35bc
00000040: e94e a2ba 5049 503b 11b7 853c 5ae3 b6bb
00000050: bf20 1b3c 6f88 5bbc 3ea4 f53a f34c 70bb
00000060: 42da b83b 19eb 333c 93c2 68bb e6dd 2b3c
00000070: 0311 d93a e61e 093c 06ac babb f6f4 93bb
00000080: f6cf 80bb 97d0 5ebc b2b6 c43b 4d5a 8a3b
00000090: 372d 4cbc afd4 6abc 5fe1 ec3b 1ced 06bc
000000a0: 0e7f e5bb dd61 31bb 182a 0f3c 958a 69bc
000000b0: e31a 173c f420 f53b 9c59 5bbc 262e 6f3b
000000c0: 1dda b3bb 5179 4ebc a474 853b a694 42bc
000000d0: 4d45 2d3c fcac 25bb cc4b f33a 7211 debb
000000e0: fb8f f23b a1f7 86bb 1d6a 29bc b171 85bb
000000f0: a91f 053c 2ce6 aabb 3110 f3bb 842c c6ba
00000100: e2ad 63bc 7754 3cbb 4f46 6a3c 3439 0fbc
00000110: 1629 d5ba fcde 783c c693 71bc b8aa 5c3c
00000120: ef77 4a3c a368 853b 7b22 6fbc 0094 333c
00000130: a905 933c 131e 46bc dd01 a9bb 7615 783c
00000140: 4319 153b 9d6a 313c 4a78 60bc 1b7f cabb
00000150: 6ab0 0a3c 685f 6ebc d090 6d3c 6c66 4ebc
00000160: 39d5 283c 7786 2c3c 2df7 36bc 4592 543c
00000170: ecd6 83bc 89ca 6cbc eaab e9ba 2267 f1bb
00000180: 5505 5cbc 83ca 10bc df27 89bc ad02 fdba
00000190: 3fc0 29bc 6437 3ebc 4161 e1bb 6f9a 333c
000001a0: 7c26 0e3c eb76 973a cb28 5cbc 58a3 cd3b
000001b0: fad9 b63b bc33 1c3c f0c4 1ebc 025f 6b3b
000001c0: 007a 9fbc 5cf4 1abb 7a40 23ba 9da7 dd3b
000001d0: 35c7 54bc d952 7e3c 0d18 923c d94e cd3b
000001e0: 0a55 d23b f6e5 7a3c 77fe 3fbb a266 973b
000001f0: 5374 233a 1ce0 adbb c314 0cbc e581 d33a
00000200: 6c42 493c bf05 79bc a499 25bb c489 3f3c
00000210: 6f65 48ba 7aa6 fabb 1c38 18bc 5b5b fdbb
00000220: a55b b83b 657d 883c 5562 073c f945 69bb
00000230: 2b46 673c ff0f 963c d441 f1bb 7a7e 45bc
00000240: 4a57 f0bb 9301 633c 6a06 e8bb b22e 0c39
00000250: 7d33 3f3b 9a1e 9ebb 438c b13a a869 8f3a
00000260: 0089 8e3c 8365 06bc c33e 3d3c af24 6fbb
00000270: 4961 243c 7277 abbb 1236 0abc 8a6f edbb
00000280: ee26 7dbb a2b8 8dbb b0b9 833c 677f 203a
00000290: 6907 643c 58c1 0fbc 3901 5e3c 2742 0a3c
000002a0: d644 3e3a a300 87bb c985 5f3c 86c0 1ebc
000002b0: e7ec 0fbc 2e82 ac3b b490 663c e9d3 553c
000002c0: b16e 0d3c 04ff 7e3c 9b8c 083c 5973 6b3c
000002d0: 34ba 53bc 5271 52bc 91f8 5cbc 968b 5ebc
000002e0: 78bf b33a 6a88 80bc 5801 e3ba f038 6d3c
000002f0: 7c5d 023c 372c 2fbc 90d9 a0ba 9b53 04bc
00000300: a2d0 debb 6ffd 71bc d5d2 e7bb a2f0 8fba
00000310: ef7c 4abc 1a5a 48bc 3e6a 6bbc 826e 8b3c
00000320: f588 7f3c 1b78 79bc c134 813c 78ca 5dbc
00000330: b0d9 fb3b 6d78 33bc 18ef 94bb 0211 2b3c
00000340: c5fe 5cbc a059 803c 8705 41bc 69ca 1e3c
00000350: a053 623a ad5f 013b b5b2 7ebc c205 973c
00000360: 1570 9fbc a551 b63b f046 78bc 698a d1ba
00000370: fc16 7abc 8818 adbb c8e6 643c d744 113c
00000380: ab41 8dbb f45b cf38 44cc c23b 173a 393b
00000390: 95e6 1fbc a324 95bc 2d43 4b3c f0db 4abb
000003a0: c3ce 20bb 54a5 0a3b 6764 e1bb 21aa 803a
000003b0: ec51 fc3b c9b2 40bc 9509 5c3c 53b1 ccbb
000003c0: 3bd1 8aba 4520 01bb bc73 6d3a c076 423c
000003d0: cac8 133b 083d 813c 04b6 f3bb b4d1 56bb
000003e0: 8c13 95bc 8d5c 99bc 6422 92bb e17f 2dbb
000003f0: 555c 4039 6301 a53c 5878 35bc ceff 0b3c

fc2.bias f4 [300]
-0.010796005 -0.01044308 0.026508773 0.0034737748 0.026969822 0.002136218 -0.0017496439 -0.0007905112
0.031428155 0.025152462 -0.029451367 -0.014574087 -0.012143736 -0.015683582 0.021257827 0.02602042
-0.01084102 -0.007650215 -0.010638312 -0.0061993822 -0.012795003 0.02573151 -0.0072408114 0.0153269265
-0.018120626 0.05562108 0.0027906874 0.032774165 -0.0012967873 -0.008254087 0.008111547 -0.0013054151
-0.02588658 -0.0011980662 -0.02798938 -0.023195112 0.008441826 0.029309427 0.020957882 -0.0046862126
-0.015072077 0.01964207 -0.008851457 -0.018554294 0.01337791 0.010434187 0.023522466 0.016092546
0.023132557 0.015107548 0.021196265 -0.0294377 0.011284713 -0.010061374 0.031083789 0.026451971
-0.0033359923 0.0055173435 -0.005394437 0.037995078 0.039705597 0.015424881 0.004048016 -0.008491571
-0.009935028 0.033067744 -0.0005649422 0.009077823 -0.029222557 0.013526705 0.028555602 0.022070125
0.028530402 0.0005535077 0.03916238 -0.0034021712 -0.017281534 -0.010419136 -0.008165826 -0.024201116
0.008802823 -0.003260304 -0.009568227 -0.025862996 0.013935521 -0.02458036 0.060707778 -0.012009958
0.022380803 0.005983209 0.0031937999 0.033487935 -0.015590456 0.010110262 0.034321997 -0.031648614
0.00782516 0.024561826 -0.035780426 -0.034480967 -0.01492222 0.014680489 -0.023877108 -0.0139631415
0.0038634455 0.0053461855 -0.00027986374 -0.0032185956 -0.026847258 -0.009014469 0.01432476 -0.011545061
0.025650602 0.031232389 0.019922677 0.027747313 -0.006923965 -0.0148205515 -0.0115471585 -0.003179785
0.005014869 0.0023140274 0.016251594 0.012580547 0.04522045 0.02552244 -0.013664773 -0.016842475
-0.0008991975 0.020096237 0.033563636 -0.03656625 -0.012842593 0.010669653 0.027600469 0.011432867
0.009126003 0.036484353 -0.016129224 -0.023742959 0.015629452 0.018747415 -0.012119684 -0.009906064
-0.0055798343 8.664478e-05 0.018070579 0.033885352 -0.00049046363 0.01545628 0.03659139 0.009203446
-0.0025801165 0.017480457 0.0021514301 -0.009564217 0.007002845 0.0037997663 -0.0075393072 -0.030437335
0.011839989 -0.015336459 -0.0060730716 0.009733679 0.008710809 -0.02401725 -0.017901933 -0.022573825
0.0035255249 -0.0134476945 -0.014787679 0.036181062 -0.018762082 0.015918283 -0.007649941 -0.023553954
0.0031234785 0.016622769 0.0033039337 -0.028525734 -0.009629695 0.01900659 -0.01297203 0.002512692
0.013186669 -0.009436341 -0.021428954 -0.02144163 0.028409528 0.008388145 -0.016909054 -0.00117445
0.008979996 0.035842933 -0.023490675 -0.010015484 0.014854699 0.035625998 0.013195491 0.037468296
-0.023163779 -0.021272918 0.0053345794 -0.024446437 0.0067938752 0.04092527 0.015794965 -0.0064929766
0.015814971 -0.0012524285 0.008706141 -0.020851357 0.0211998 0.15990923 0.03414342 -0.014832028
-0.013670428 0.010296343 0.010189991 -0.016490567 0.0244587 0.030600736 0.13340956 0.017697258
0.035386764 -0.02832514 -0.007943344 0.009372183 -0.0082049165 -0.0039333156 -0.02908073 0.010902371
-0.01797995 0.012404694 0.0039701904 0.02568191 0.019261582 0.011492408 -0.009427451 -0.012583187
-0.012567314 0.01523395 -0.004534529 0.0057752477 -0.02887832 0.032981075 -0.02089557 0.02972422
-0.0033706503 0.042374767 -0.01633251 0.038859304 -0.01136888 -0.0051932014 -0.018140264 -0.011660081
00000000: bae1 30bc 7419 2bbc ed28 d93c 45a8 633b
00000010: d1ef dc3c caff 0b3b 4f54 e5ba 4f3a 4fba
00000020: cfba 003d 890c ce3c fe43 f1bc 27c8 6ebc
00000030: 85f6 46bc db7a 80bc e524 ae3c c728 d53c
00000040: 899e 31bc a8ae fabb 514c 2ebc 3024 cbbb
00000050: 22a2 51bc e3ca d23c 5444 edbb ca1d 7b3c
00000060: b571 94bc eed2 633d f7e3 363b 343e 063d
00000070: f6f8 a9ba 263c 07bc 4be6 043c 761a abba
00000080: 1810 d4bc 6e08 9dba fc49 e5bc ad03 bebc
00000090: 964f 0a3c 531a f03c ddaf ab3c cd8e 99bb
000000a0: dff0 76bc 68e8 a03c b405 11bc 2dff 97bc
000000b0: 052f 5b3c 27f4 2a3c 30b2 c03c 84d4 833c
000000c0: 7d80 bd3c a685 773c caa3 ad3c 5527 f1bc
000000d0: 84e3 383c 76d8 24bc 6ea3 fe3c ceb1 d83c
000000e0: aaa0 5abb d5ca b43b d1c3 b0bb baa0 1b3d
000000f0: 56a2 223d a4b8 7c3c 38a5 843b 3b20 0bbc
00000100: 87c6 22bc 0b72 073d a118 14ba 26bb 143c
00000110: 2564 efbc 1d9f 5d3c 70ed e93c 68cc b43c
00000120: 97b8 e93c 4619 113a bb68 203d f6f6 5ebb
00000130: 0192 8dbc 06b5 2abc f5c9 05bc 6b41 c6bc
00000140: b739 103c d3aa 55bb 0ec4 1cbc a2de d3bc
00000150: d051 643c c05c c9bc b8a8 783d 6ac5 44bc
00000160: f257 b73c cb0e c43b 124f 513b a52a 093d
00000170: 1d6f 7fbc 83a5 253c 3995 0c3d faa1 01bd
00000180: 1a35 003c e235 c93c 7f8e 12bd ea3b 0dbd
00000190: 547c 74bc 6f86 703c ed99 c3bc a9c5 64bc
000001a0: dc31 7d3b 0e2f af3b adba 92b9 13ef 52bb
000001b0: c8ee dbbc 6cb1 13bc 66b2 6a3c 7f27 3dbc
000001c0: 3621 d23c 11db ff3c e234 a33c 554e e33c
000001d0: 6ee2 e2bb e6d1 72bc 4b30 3dbc f163 50bb
000001e0: c553 a43b f0a6 173b 1022 853c a31e 4e3c
000001f0: 1439 393d 7014 d13c 36e2 5fbc 3bf9 89bc
00000200: 1fb8 6bba dda0 a43c 067a 093d 7ec6 15bd
00000210: bd69 52bc c5cf 2e3c 611a e23c eb50 3b3c
00000220: 3b85 153c 9e70 153d 6f21 84bc 9880 c2bc
00000230: 5609 803c 2e94 993c a491 46bc 0b4d 22bc
00000240: 0bd7 b6bb 10b5 b538 c008 943c 5ecb 0a3d
00000250: 7592 00ba 563c 7d3c dae0 153d 0dca 163c
00000260: 2c17 29bb 2d33 8f3c 02ff 0c3b 3cb3 1cbc
00000270: 1f78 e53b 8005 793b 4b0c f7bb b857 f9bc
00000280: 83fc 413c c545 7bbc 9e00 c7bb 027a 1f3c
00000290: c8b7 0e3c d3bf c4bc 13a7 92bc beec b8bc
000002a0: 7e0c 673b b853 5cbc 0548 72bc 9832 143d
000002b0: f0b2 99bc 0f67 823c 5bac fabb 39f4 c0bc
000002c0: 46b3 4c3b 792c 883c cf86 583b cdae e9bc
000002d0: dec5 1dbc b5b3 9b3c a388 54bc faab 243b
000002e0: e60c 583c e29a 1abc c68b afbc 5ba6 afbc
000002f0: 19bb e83c 6e6e 093c db84 8abc 01f0 99ba
00000300: d520 133c 0ad0 123d 846f c0bc fc17 24bc
00000310: 2061 733c 91ec 113d e731 583c 5b78 193d
00000320: f7c1 bdbc 8b44 aebc b2cd ae3b e543 c8bc
00000330: 289f de3b 42a1 273d 7164 813c 09c3 d4bb
00000340: 668e 813c 8728 a4ba 34a4 0e3c 77d0 aabc
00000350: 34ab ad3c 3fbf 233e f9d9 0b3d 0902 73bc
00000360: eef9 5fbc feb1 283c ecf3 263c 3a17 87bc
00000370: 9d5d c83c 65ae fa3c 849c 083e d7f9 903c
00000380: b6f1 103d 200a e8bc cd24 02bc c98d 193c
00000390: ea6d 06bc 0be3 80bb b63a eebc dc9f 323c
000003a0: b04a 93bc 0f3d 4b3c 5f18 823b de62 d23c
000003b0: 77ca 9d3c a74a 3c3c 9875 1abc b629 4ebc
000003c0: 23e7 4dbc d197 793c 6396 94bb 4a3e bd3b
000003d0: 3a92 ecbc 2a17 073d 302d abbc 3580 f33c
000003e0: 21e6 5cbb 2a91 2d3d c2cb 85bc ef2a 1f3d
000003f0: 8a44 3abc bb2b aabb e49a 94bc ed09 3fbc

fc_out.weight f4 [1, 300]
-0.0040367474 -0.014979634 -0.102076925 -0.014677569 -0.008471525 0.029009268 -0.015684368 -0.0019498571
-0.0092135705 -0.009851739 -0.012287176 -0.011236641 -0.004922603 -0.010162696 -0.017391138 -0.11792303
-0.0014466165 -0.010028674 -0.0018718542 -0.004013142 0.00017372862 -0.014945616 -0.01480041 -0.015409388
-0.012986454 -0.072917245 -0.0042638574 -0.026225165 0.058658272 -0.0016913997 0.0012119077 -0.0018288211
-0.16683292 -0.011432293 -0.009732738 0.02902396 -0.01710183 -0.014263512 -0.012216699 -0.011633109
-0.0060303556 -0.013185268 -0.0074487417 -0.012835767 -0.014128574 -0.00017867089 -0.115379594 -0.017310485
-0.11924287 -0.012699665 -0.015077111 -0.007311776 -0.015354443 -0.0136782415 -0.01171008 -0.015650967
-0.014188476 -0.0113049075 0.0004642821 -0.013376253 -0.014378097 -0.025225008 -0.006877439 -0.0033598025
-0.013127887 -0.011372257 -0.012596343 -0.005449205 -0.0136904325 0.0007053221 -0.019573944 -0.01438077
-0.021972718 -0.01021837 -0.014364233 -0.0018669469 -0.0144326305 -0.013714339 -0.23515311 -0.01347034
-0.012070997 -0.010843656 -0.00031173855 -0.012934512 -0.011701291 -0.010187431 -0.07641281 -0.014136764
-0.015287687 -0.0033386073 -0.11223819 -0.013783969 -0.0001350011 -0.003612098 -0.013738069 -0.011959192
-0.01888211 -0.014337402 -0.04256672 -0.0384976 0.0004272098 -0.0028831856 -0.016032869 0.000257285
0.0008307416 -0.01480301 -0.0032465293 -0.0141657945 -0.018744115 -0.01428496 -0.018492263 -0.0040938742
-0.02152826 -0.013680188 -0.008119778 -0.011565981 -0.00010988192 -0.010132267 -0.002142126 -0.013582157
-0.0054290933 -0.00449347 -0.02244775 -0.0037719097 -0.09831331 -0.013323787 -0.014441949 -0.009740579
-0.16903636 0.002163734 -0.0752791 -0.20339902 0.048492298 0.0031636353 -0.10920496 -0.012193209
-0.0029379774 -0.036694683 -0.014163753 -0.013652135 -0.013098692 -0.00933155 -0.0034286596 -0.0004960484
-0.015412994 0.030678181 -0.0036223785 -0.06811502 -0.0042633107 -0.0028509994 -0.015830938 -0.0011393026
-0.0046349885 -0.015356625 -6.613067e-05 -0.013164668 -0.014401951 -0.0045363405 -0.0032218413 -0.013780855
-0.0011001723 8.5999645e-06 -0.013452064 -0.017539693 -0.011964094 -0.011023429 -0.014766938 -0.0154808005
-0.0025781228 -0.011816133 -0.012793547 -0.01432491 -0.015473219 0.0017553172 -0.00088806497 -0.008760287
-0.0009350089 -0.014340647 -0.0037332228 -0.0117669245 -0.001733859 0.0024913326 -0.015824933 -0.014897642
-0.13634197 -0.013702621 0.030717347 -0.0125191845 -0.03411047 -0.015161001 0.0038419003 -0.00048903195
2.1149838e-06 -0.009873058 -0.013190467 -0.0050685136 0.0003812879 -0.015847621 -0.011176318 -0.014493659
-0.012692106 -0.20991623 -0.056286108 -0.014859427 0.002578716 -0.015277185 -0.004859668 -0.015635278
-0.0045905546 -0.0012779562 -0.013317829 -0.013339089 -0.023982005 -0.2966806 -0.014233107 -0.01632865
-0.012163706 -0.0009510977 -0.01512768 -0.0026875548 -0.012896991 -0.013614619 -0.16555281 -0.02619859
-0.014928659 0.05666464 0.0053421576 -0.10925491 -0.013402937 0.0008778154 -0.180128 -0.0038384846
-0.013147429 -0.015080216 -0.0048897276 -0.014194944 -0.0075769885 -0.0077294577 -0.0068585263 0.050397664
-0.014549377 -0.012635603 -0.014614937 -0.011990291 -0.009862861 -0.016993638 -0.0134579 -0.014061509
-0.00040454947 -0.015731864 -8.8275105e-05 -0.014367761 -0.012553137 0.0035717264 -0.002482975 -0.012650337
00000000: b146 84bb 246d 75bc b50d d1bd 307a 70bc
00000010: 27cc 0abc d8a4 ed3c 817c 80bc 5992 ffba
00000020: 84f4 16bc 3069 21bc 2750 49bc e319 38bc
00000030: c94d a1bb 7081 26bc dc77 8ebc a181 f1bd
00000040: 659c bdba 4f4f 24bc 0159 f5ba ad80 83bb
00000050: ec2a 3639 75de 74bc 6b7d 72bc a877 7cbc
00000060: 23c5 54bc a355 95bd d4b7 8bbb 28d6 d6bc
00000070: a843 703d f5b1 ddba e0d8 9e3a 0eb5 efba
00000080: 40d6 2abe 834e 3bbc 1076 1fbc a8c3 ed3c
00000090: 2319 8cbc 81b1 69bc 8d28 48bc cc98 3ebc
000000a0: 4a9a c5bb 0607 58bc 9314 f4bb 1c4d 52bc
000000b0: 897b 67bc 9a59 3bb9 234c ecbd b8ce 8dbc
000000c0: 9b35 f4bd 4112 50bc fd05 77bc 9f97 efbb
000000d0: 3491 7bbc b41a 60bc a3db 3fbc 7536 80bc
000000e0: c876 68bc 3838 39bc e36a f339 1228 5bbc
000000f0: 1c92 6bbc ada4 cebc 245c e1bb 2230 5cbb
00000100: 5916 57bc b452 3abc e460 4ebc 3f8f b2bb
00000110: d64d 60bc 5de5 383a 8959 a0bc 529d 6bbc
00000120: 2100 b4bc f36a 27bc f657 6bbc 58b4 f4ba
00000130: d776 6cbc 1bb2 60bc facb 70be b3b2 5cbc
00000140: 6ec5 45bc 97a9 31bc d770 a3b9 47eb 53bc
00000150: c6b6 3fbc 2fe9 26bc 527e 9cbd e39d 67bc
00000160: 3579 7abc 89cc 5abb 23dd e5bd 28d6 61bc
00000170: 158f 0db9 f3b8 6cbb a315 61bc 7df0 43bc
00000180: a8ae 9abc 6ce7 6abc 715a 2ebd a9af 1dbd
00000190: 21fb df39 d4f3 3cbb 5d57 83bc 35e4 8639
000001a0: 20c6 593a 5388 72bc b9c3 54bb a617 68bc
000001b0: 428d 99bc 770b 6abc 167d 97bc e825 86bb
000001c0: 095c b0bc de22 60bc d108 05bc 3e7f 3dbc
000001d0: 6870 e6b8 cf01 26bc e962 0cbb b287 5ebc
000001e0: 89e6 b1bb f53d 93bb 58e4 b7bc 2532 77bb
000001f0: 7d58 c9bd 034c 5abc ed9d 6cbc f396 1fbc
00000200: de17 2dbe 6fcd 0d3b ee2b 9abd d547 50be
00000210: dc9f 463d fe54 4f3b daa6 dfbd 06c6 47bc
00000220: 158b 40bb 2a4d 16bd 160f 68bc 34ad 5fbc
00000230: e59b 56bc 5ce3 18bc 5db3 60bb 3f09 02ba
00000240: c886 7cbc cf50 fb3c 6d65 6dbb e37f 8bbd
00000250: 3eb3 8bbb d5d7 3abb e2af 81bc a754 95ba
00000260: 1ae1 97bb 5b9a 7bbc a2af 8ab8 9fb0 57bc
00000270: 29f6 6bbc 95a5 94bb 8725 53bb 18c9 61bc
00000280: a833 90ba 9148 1037 0c66 5cbc 67af 8fbc
00000290: 0c05 44bc 9d9b 34bc 07f1 71bc 2fa3 7dbc
000002a0: b9f5 28bb 7498 41bc 069c 51bc 07b3 6abc
000002b0: 6283 7dbc ac12 e63a 08cd 68ba 4f87 0fbc
000002c0: 631b 75ba 08f5 6abc 16a9 74bb 0fca 40bc
000002d0: a742 e3ba a045 233b 4aa3 81bc 3d15 74bc
000002e0: 3b9d 0bbe f580 60bc f2a2 fb3c 441d 4dbc
000002f0: 6cb7 0bbd d965 78bc 64c8 7b3b 6132 00ba
00000300: 25ef 0d36 9bc2 21bc d41c 58bc c615 a6bb
00000310: 98e7 c739 dfd2 81bc e01c 37bc d076 6dbc
00000320: 8df2 4fbc 48f4 56be 438c 66bd f474 73bc
00000330: adff 283b 284d 7abc da3d 9fbb 8e15 80bc
00000340: 5d6c 96bb 1881 a7ba 0633 5abc 328c 5abc
00000350: e975 c4bc 85e6 97be fa31 69bc a9c3 85bc
00000360: 484a 47bc 1653 79ba 17da 77bc b021 30bb
00000370: e74d 53bc da0f 5fbc ad86 29be 6d9e d6bc
00000380: 5697 74bc 2e19 683d 440d af3b 0ac1 dfbd
00000390: fe97 5bbc 321d 663a 7973 38be 168f 7bbb
000003a0: 5068 57bc 0313 77bc 023a a0bb e991 68bc
000003b0: 6348 f8bb 6447 fdbb 7dbd e0bb c86d 4e3d
000003c0: 8360 6ebc 8f05 4fbc 7d73 6fbc ed72 44bc
000003d0: d697 21bc 3e36 8bbc 867e 5cbc 3e62 66bc
000003e0: b619 d4b9 1ce0 80bc 5620 b9b8 c266 6bbc
000003f0: acab 4dbc a013 6a3b 68b9 22bb 5c43 4fbc
