DQN/weight/actor.pth (torch, 5023 bytes, 4 tensors)

fc1.weight f4 [128, 4]
00000000: 0e0f 483f af60 f7be f572 1ec0 a67d 83bf
00000010: 0ed1 17be 7186 f43e f6f3 e43f ccc1 7b3f
00000020: 775f 163d 19f4 d03d 2fc8 87be 8a5d 093e
00000030: 718a e1be 90bd 57be a316 7cbe a1a0 e93d
00000040: b859 863f e37b c0be e7ce 17c0 0a4f 73bf
00000050: 7e03 c5bc 6761 e13e 5def 47bd b8ce 0c3f
00000060: 170f 4b3c e46e c7bd 601e 9a3e 4a4a ccbd
00000070: aaba 573c 9b88 ae3d 0b65 c3be c4f6 ca3e
00000080: 9ad6 77be 87c9 aebe 9baa eebe 7eb0 1cbe
00000090: 061e 25bf a69d fd3e fce3 1b40 bb42 8c3f
000000a0: 876d a83d 9661 abbe 40a9 0abd cb77 42be
000000b0: efd2 cfbf 425d ecbe 6799 1640 ff2a 5a3f
000000c0: 2b72 13bf 93c2 173e a346 f43f d0d4 833f
000000d0: ff72 823f f417 28bf cb1c dabf c051 80bf
000000e0: 40f0 283e 2d3a 9bbe 1132 bebe 185d 15be
000000f0: 1507 9dbd 6e61 af3e ce58 d8bd b039 1ebd
00000100: 1246 943e eb64 553c cf5a a6bb b046 843e
00000110: a8b9 df3f 47bb e53e 3eb4 f3bf 9a0a 1dbf
00000120: 2a44 7a3e 344d 163f 7490 db3e 7eb7 023f
00000130: 2e2e 6f3e c624 b5be 7a2a e2bd 2569 5fbe
00000140: dfce e83e 08f2 e0bd ee59 bfbf 0558 8fbf
00000150: d5be 693d 5f4c f7bd 256f 3bbd 4bf9 44be
00000160: 2a44 0bbf 2122 cdbe d2cb c53f 4408 253f
00000170: b281 723e cf6e a23e 914b b5be 9029 97be
00000180: 4882 393f aefc 48be ebd5 62bf cbfe 66bc
00000190: b0a1 f03f d222 c43d 8e40 fabf 2620 2abf
000001a0: 5d7d a23e 07e9 44bf 79bb 23c0 d929 90bf
000001b0: 8b19 debd 7a7d 433e 0a9e 16be cfa2 de3e
000001c0: 8af9 463f da49 ae3c 701a aabf ef49 6abf
000001d0: 03df 16be ebe0 d53d 899c bb3d 0e70 8c3e
000001e0: 49a8 9cbe e6fb 733e 3fbe 0940 4e5a 673f
000001f0: e1bb 91bf 5e80 bdbe 2f6d 773e b5ee 163e
00000200: d950 6abe 8ae2 90be cc97 0fbe b3d5 453e
00000210: adbe 8bbe 77f1 463d 407d 973e 4aff bc3d
00000220: 3964 323e 9924 bb3e b6d7 e13f eea4 4f3f
00000230: 81ca 403f 47e7 dd3e a3d9 003e c65c 94bd
00000240: be45 efbf 04d3 25bf d869 0640 2ea7 0c3f
00000250: b7da 59be 9a35 bdbe eb91 09bf fbb9 78be
00000260: 5e24 283f ce7f c3be d1a9 d0bf 29ca 92bf
00000270: 2eb0 9f3e 8a52 c8be f07b d8bd 1c9a 4fbe
00000280: f284 15be a8ce 28be 43fa 09bf 9891 29be
00000290: 89c4 babf aff0 bebe 62fa b53f 073e 303f
000002a0: 8902 a4be 6e4c 91bc 3d30 9e3e ffca d3bc
000002b0: 1306 f23e f114 7e3e 1105 0fbf 19b4 db3e
000002c0: 0457 ba3e 5f8f 72bf a07a b2bf 328b 7bbf
000002d0: 3947 d1bd 2902 b73d 83cf 063f e6c6 6e3e
000002e0: 5bb0 833e 2614 1c3e 6378 4abe fb02 fe3d
000002f0: 63f2 5ebf 16f5 d83e c0f5 3340 3d5e 853f
00000300: b89f 183f 518c 07bf 97d7 22c0 9449 8abf
00000310: e970 a8be 9b6f 083e ff48 85be f4ef da3c
00000320: 9b9b ac3e bb90 593e 23a6 2bbf 3d78 e1be
00000330: cc2e b3be fa07 f23e 0456 65bd 5cf9 0e3f
00000340: e1be 133e 617a db3c 5458 063d c342 7fbd
00000350: 58f3 453d 6f25 43bd 6bd1 83bb d2f3 603e
00000360: aa30 f73d 3f00 a0bf 3d57 debf 7e10 8cbf
00000370: fbc1 b93f 69b5 113f 1dcd 9cbf b052 99be
00000380: 22dc dabe 79ab 5c3e b593 e2be 55a4 c43d
00000390: 43da aabe 4251 423e 7b14 3a3e 0752 d63e
000003a0: ca2d 013e 70da 863e 6a30 163e 9a60 a63d
000003b0: 956a 463e 2127 87be 324d 5abe 9a3c 923e
000003c0: fdde c43f da95 ca3d acbf fabf 0aee 0bbf
000003d0: d131 9e3e b63e ddbe 3177 d33e 1b1b b9be
000003e0: e3eb abbf 84a9 b8be 9f63 c93f c409 103f
000003f0: edf9 ff3e d373 e7bd 65b9 d8be 3982 ffbc
0.7814797 -0.4831595 -2.4757664 -1.027272 -0.14825842 0.4775882 1.7886951 0.98342586
0.036712136 0.10202808 -0.26519915 0.13414589 -0.44050935 -0.21068406 -0.2461801 0.11407591
1.049613 -0.37594518 -2.3720033 -0.9504248 -0.024049517 0.44019625 -0.04881226 0.5500293
0.012393734 -0.097379476 0.301013 -0.09975107 0.013167063 0.08522149 -0.38163027 0.39641392
-0.24202958 -0.34138128 -0.46614537 -0.15301701 -0.6449894 0.4953434 2.43579 1.0957865
0.08224016 -0.3347289 -0.033852816 -0.1899101 -1.6236247 -0.461649 2.353113 0.85221857
-0.5759608 0.14820318 1.9084057 1.029932 1.0191344 -0.6566155 -1.7040037 -1.0024948
0.16497898 -0.30317822 -0.37147573 -0.14586294 -0.076673664 0.3425402 -0.10563813 -0.038629234
0.2895971 0.013024549 -0.005076743 0.2583518 1.7478533 0.44869444 -1.903938 -0.613443
0.24440065 0.5871155 0.42883646 0.51061237 0.2335746 -0.35379618 -0.11043258 -0.21817453
0.4547033 -0.10983664 -1.4949319 -1.1198736 0.057066757 -0.120751135 -0.045760293 -0.19235723
-0.54400885 -0.400651 1.5452826 0.6446574 0.23682287 0.31725165 -0.35409215 -0.29523897
0.7246442 -0.1962764 -0.8860766 -0.014098833 1.8799343 0.09576954 -1.955095 -0.66455305
0.3173627 -0.7691807 -2.5583174 -1.1262771 -0.10844716 0.19090834 -0.14708725 0.43483588
0.77724516 0.02127545 -1.3289318 -0.91519064 -0.1473351 0.1044329 0.09160716 0.2742924
-0.3059714 0.2382656 2.1522367 0.9037217 -1.1385461 -0.37012 0.24162744 0.14739497
-0.22882403 -0.28297836 -0.1402275 0.19319801 -0.27293912 0.048570123 0.29587746 0.0922838
0.17421044 0.3655136 1.7643955 0.8111104 0.75308996 0.43340513 0.12583022 -0.07244258
-1.8693159 -0.6477511 2.1002102 0.54942596 -0.2127484 -0.36954957 -0.5373828 -0.24289696
0.6568049 -0.38183445 -1.6301824 -1.1467944 0.31189102 -0.39125472 -0.10570514 -0.20273632
-0.14601496 -0.16485083 -0.53897494 -0.16559446 -1.4591228 -0.37293002 1.4217036 0.68844646
-0.32033184 -0.01773664 0.30896178 -0.025853632 0.4727026 0.24812676 -0.55867106 0.4291084
0.36394513 -0.94750017 -1.3943672 -0.9825927 -0.10218663 0.08935959 0.5266039 0.23318061
0.25720486 0.15242061 -0.19772486 0.12402912 -0.870886 0.42374486 2.8118744 1.0419384
0.5961871 -0.5294848 -2.5444086 -1.0803704 -0.32898644 0.13323824 -0.26032254 0.026725747
0.33712468 0.21246617 -0.6705038 -0.44037047 -0.3499664 0.4727171 -0.055990234 0.5584924
0.14428283 0.026791753 0.03279908 -0.06231953 0.048327774 -0.04764312 -0.0040227673 0.2196801
0.12069829 -1.2500075 -1.7370373 -1.0942533 1.4512323 0.56917435 -1.2250096 -0.29945898
-0.42746073 0.21549787 -0.44253317 0.09601656 -0.33369645 0.1897631 0.18171875 0.41859457
0.12615123 0.2633853 0.14666906 0.08123894 0.19376595 -0.2639704 -0.2131851 0.2856186
1.5380551 0.09891863 -1.9589744 -0.54660094 0.30897382 -0.43211907 0.41301873 -0.36153492
-1.3431362 -0.3606683 1.5733527 0.562649 0.49995366 -0.113013886 -0.42328945 -0.031190025

fc1.bias f4 [128]
00000000: 2799 84bd 14b5 6abe c27d 663f f91a 553f
00000010: 4021 58be 51e8 433f 1585 893f e4a2 da3e
00000020: f2a0 643f 9bcc 33be 925a 723f c9da 08bf
00000030: ba4e f3be 83bf 33be 9bcc 8a3f 767f b43e
00000040: 03da 323f 7358 dcbd 35b8 913f 4ff1 943f
00000050: 2554 b4be f23a e2be 2c40 18bf 2974 f63e
00000060: 3093 5a3f a459 03be f797 e3bc 6796 4a3f
00000070: f55e 89be 8e4e 453f bbed 513b 3999 be3d
00000080: e7b1 573f fd02 8e3f 9d5c 3ebd e171 4f3f
00000090: bc73 23be 35e8 9c3f 5c39 a8be d26a f5be
000000a0: 66f9 9d3f 1d86 88bd d35b 5a3f 5b3e 2f3f
000000b0: 46b9 5fbe 77ad 0a3f 2ee0 8a3f d4be 203e
000000c0: cdf6 00be a366 aabe fea6 8f3f 03c3 5d3f
000000d0: 785d b8be d9c1 903f 3121 bebd 675c 7f3d
000000e0: 34c4 913f 862e 4e3f 13b0 a03f 44bd 7f3f
000000f0: c47c bebd 063b c4be 4001 1e3d 148a 913f
00000100: dc76 79be 512c 78be 6b34 623f 2b95 9d3f
00000110: ae6c 13be 6bbd 30bf 37db 28bf 1dbb 603f
00000120: 3899 06be a442 cebd cf7f 413f 2399 633f
00000130: 17b7 963f 1846 8d3f c1d3 153f 7ebb e1be
00000140: d853 e7be 1924 953f a435 7f3f 650a 6e3f
00000150: 431d 1cbe d4b5 973f 2783 933f 4251 713f
00000160: 30f5 d7be ed57 78be a0bc 803b cefa 9a3f
00000170: e3ca 7e3e 5afe 02be 84da 6f3f cdd7 33be
00000180: 399a 3e3f 23a7 ccbd 4cb8 153f 1f7d dabe
00000190: 338c 723f 37e5 9e3e 0ba6 703f 3171 953f
000001a0: 5fb4 6b3f b2ee 4c3f 523a 8e3f 9c88 463f
000001b0: f42a 9abe 948e 9a3f f722 d4be 38c6 f9be
000001c0: 380c 0bbc c16e a0be e35c 9a3f 3e7d 503f
000001d0: b6f7 83be df31 2a3f f0c7 8d3f acca 383f
000001e0: 867a 703f 1e06 413f 9597 2d3f f927 163f
000001f0: 5464 893e 6cee 05bf f10f 08bf 9e49 663f
-0.06474524 -0.22920638 0.9003564 0.8324428 -0.21106434 0.7652636 1.0743738 0.427024
0.89308083 -0.1755852 0.9466945 -0.5345884 -0.47521 -0.17553525 1.0843691 0.35253495
0.6986391 -0.10759058 1.138434 1.1636142 -0.35220447 -0.44185597 -0.5947292 0.48135498
0.8538084 -0.12827164 -0.027782423 0.79135746 -0.2683026 0.7707299 0.0032032568 0.09306569
0.8425583 1.1094662 -0.04647504 0.8103314 -0.15962118 1.2258364 -0.32856262 -0.4793306
1.2341735 -0.06666205 0.8529636 0.6845452 -0.2184802 0.54170936 1.0849664 0.15697795
-0.12594147 -0.3328143 1.1222837 0.8662569 -0.3600881 1.1309158 -0.092836745 0.06234398
1.1388001 0.8053974 1.2553734 0.9989817 -0.09301141 -0.3832628 0.03857541 1.1370263
-0.24361748 -0.24235655 0.88361233 1.2311147 -0.14396927 -0.6903903 -0.65959495 0.8778551
-0.13144386 -0.100713044 0.75585645 0.88905543 1.1774625 1.1037016 0.58526236 -0.44088358
-0.45181155 1.1651641 0.99691224 0.9298461 -0.15245537 1.1852365 1.15244 0.94264615
-0.4217925 -0.24252291 0.003928736 1.210779 0.24882083 -0.1279234 0.93692803 -0.1756279
0.74454075 -0.09992816 0.5848434 -0.42673585 0.9474518 0.31034252 0.9400336 1.1675168
0.920721 0.8005172 1.1111548 0.775522 -0.30110896 1.2074761 -0.41432926 -0.4878404
-0.0084868 -0.313345 1.2059597 0.81441104 -0.25774926 0.6648235 1.1076641 0.7218425
0.93936956 0.7539996 0.6780942 0.58654743 0.26834357 -0.5231693 -0.53149325 0.8995608

fc2.weight f4 [2, 128]
00000000: b125 39bf f5bc e9be 9809 403f 907d 8f3e
00000010: 4e38 69bf 0d91 ff3e a075 403f 74c6 0b3e
00000020: ecf8 473f e0f2 76bf 22b2 3d3f 2f34 0abf
00000030: d201 33be aaaa 68bf 4ab4 ff3e 4642 e53e
00000040: b92a ab3e c89a 1ebf 6c6d da3e 702c fb3e
00000050: 722b 3bbf 6c06 9dbc 9bb1 16bd e723 523f
00000060: dcb6 863f a0f6 40bf e817 4bbf c7f9 b23e
00000070: 74e6 1dbf 09f3 cf3e bea3 6abf d972 bebe
00000080: 7be7 263e 87b0 ed3e 3758 07bf 32ef 823f
00000090: b64c 3cbf 24ea 063f 6a46 71bf 78ea c3bc
000000a0: aaf2 343f 0307 51bf 9aa3 3c3f ed27 d13e
000000b0: 8b77 9ebf ffde 643e 1d1b 313f 33d8 90bf
000000c0: 6cf2 60bf 3498 d83c bf9b b43f f920 b13e
000000d0: aa01 693d 0a97 e23e 7545 6ebf 853b debe
000000e0: c0c0 383f 3702 3b3e 6e8a 433f 588d 883e
000000f0: f942 37bf ebc4 adbc 4634 51bf 78c2 0e3f
00000100: a6ff 62bf 82f6 64bf 566b a63e 4b1b 393f
00000110: bbbc 56bf 9015 8abd 1536 a2be d649 563f
00000120: 1e84 43bf a5af 72bf 5101 d33e c2c5 d93e
00000130: 73b9 823e a5be 053f b33e 3c3e cd7e 9a3d
00000140: 4fcf 923d bf7d 2e3f ca96 363f 54f9 323f
00000150: dad2 c5be 1c99 a23e f605 0e3f f5b8 963e
00000160: 7e1b 5b3d e7a1 033c 6a78 8abe 971d 5e3f
00000170: 4429 e8be d72b 69bf faa6 f03e 0adb 4abe
00000180: 8915 323f 6c55 18bf 0b4a f53d 3980 fabe
00000190: 2ea6 7d3e 8945 e2be 08ed 4c3f d416 243f
000001a0: 7fa7 8f3e eba4 793e ea7d 073f 31e8 353f
000001b0: 18bf 1ebc 9015 163f cd50 d6be 0030 1938
000001c0: f00d 8bbd 53b0 13bf fa0b 2c3f c8f5 713f
000001d0: d292 74bf e9d4 503e 5773 3c3f 7514 193f
000001e0: bae5 613e 2b67 f13e c910 b53e 7b56 5a3e
000001f0: 52e8 dfbe 20a6 7dbd db46 ecbe 9875 d13e
00000200: 049f 61bf e72e 4bbf c11f 333f e509 ac3e
00000210: b5c9 40bf cda4 363f 0e24 2e3f ced9 073e
00000220: a8c8 2b3f 4a04 87bf 20de 2a3f 447a 64bf
00000230: 395d 71bf d4d2 59bf 5b55 033f e579 03bd
00000240: 95a7 e53e be02 15bf ee35 053f 2846 a53e
00000250: a8a9 aabe 351f abbc c087 43bf 73ff 8abe
00000260: 9a76 143f aae2 2cbf e7b8 90bf 0a7c 073f
00000270: da99 b3be ec55 ee3e 18be 29bf 7c3b b13e
00000280: 1147 dd3e e446 e43e eea1 0bbf b4c0 113f
00000290: a7c3 00bf a214 0a3f 0adc 08bf 20b7 51bd
000002a0: 7420 193f 515d e4be 42f7 173f 3b9a 023f
000002b0: 9704 8bbf 11cf c33e 5c84 2d3f 5559 12bf
000002c0: 4a21 82bf 0393 123d 7f1b 583e 5e3c 1d3f
000002d0: c8f0 503d 7338 e83e 8d44 bfbf 839b 11bf
000002e0: 6c0c 223f b45e fa3e ef94 2b3f 8b7c da3e
000002f0: 9d7d 36bf e5f9 623d bf26 a2be ccb3 ee3e
00000300: 2588 45bf f910 85bf 7376 c83e 0804 293f
00000310: 3448 71bf 9123 5ebf d120 24bf 2857 4b3f
00000320: 7be7 00bf 1834 8cbf d78f d03e bbe3 063f
00000330: fc96 033f 311b e63e 99ae 9c3e 8794 853d
00000340: 9048 853b 6a5f 3a3f e1d4 1b3f 9d9b 423f
00000350: 2ef1 183d bae4 013f 162e 1d3f 3702 dc3e
00000360: 80bd b93a 947f 26bd 55d7 d7bb 6ac8 033f
00000370: 3865 083e b4d8 c6bf abeb 163f 80c6 20bf
00000380: c421 543f 7f45 0abf f9d5 5c3e a79e 7cbf
00000390: f246 073f 73c4 7f3b 2254 303f 6ded 183f
000003a0: da8a b93e 5038 b53e 173c d23e 2a52 2d3f
000003b0: b146 a6bc 75d1 233f 0512 debe 0099 b4bb
000003c0: f2ba a23c 041b 92bf 3cde 133f 6307 0b3f
000003d0: dced 2abf 844d a43e 8c44 2b3f 3139 153f
000003e0: 70af e33e 7711 3f3f f5a0 de3e 99a0 f23e
000003f0: b4bb ddbc f9bc d03b ad89 68bf 3f6c 233f
-0.7232314 -0.45651975 0.7501464 0.28025484 -0.9110154 0.49915352 0.7517948 0.13649923
0.781142 -0.9646435 0.74099934 -0.53985876 -0.17481163 -0.9088541 0.49942237 0.44777125
0.33431032 -0.6195493 0.42661607 0.4905734 -0.7311317 -0.019168101 -0.03679047 0.8208603
1.0524554 -0.7537632 -0.79333353 0.3495619 -0.6167977 0.4061511 -0.916561 -0.37196997
0.1629924 0.46423742 -0.5286898 1.0229247 -0.7355455 0.5270102 -0.9424807 -0.023915514
0.70682776 -0.81651324 0.73687136 0.40850773 -1.2380232 0.22350691 0.69181997 -1.1315979
-0.87869906 0.026439764 1.411003 0.3459547 0.056886353 0.4425586 -0.93074733 -0.43404785
0.72169113 0.18262564 0.763831 0.26670337 -0.7158657 -0.021212062 -0.8172039 0.55765486
-0.8867134 -0.8943864 0.32503766 0.7230727 -0.8388173 -0.06742394 -0.31681886 0.83706415
-0.7637347 -0.9479926 0.41211942 0.4253369 0.25532112 0.52244025 0.18383293 0.075437166
0.07168447 0.68160623 0.71323836 0.69911695 -0.3863743 0.31757438 0.55477846 0.29437986
0.053493015 0.008034206 -0.27044994 0.867639 -0.45343983 -0.9108252 0.47002393 -0.1981012
0.6956411 -0.59505343 0.11977013 -0.4892595 0.24770424 -0.44193676 0.8004918 0.6409733
0.28057477 0.24379317 0.52926505 0.7105742 -0.009689115 0.5862665 -0.4185852 3.6522746e-05
-0.06789768 -0.57690924 0.67205775 0.9451566 -0.9553653 0.20393719 0.73613495 0.5979684
0.2206029 0.47149023 0.3536437 0.21322052 -0.43731934 -0.061926007 -0.46147808 0.4091003
-0.88133264 -0.7936844 0.6997033 0.336013 -0.7530778 0.71345216 0.68023765 0.1326668
0.6710305 -1.0548184 0.66745186 -0.8924906 -0.9428287 -0.85087323 0.5130212 -0.03209867
0.44854417 -0.5820731 0.52035415 0.32280087 -0.33332562 -0.020888904 -0.76379013 -0.27148017
0.5799347 -0.6753336 -1.1306428 0.52923644 -0.35078317 0.46549928 -0.66305685 0.34615695
0.43218282 0.44585335 -0.5454396 0.56934667 -0.5029854 0.53937733 -0.5346075 -0.051200032
0.59815145 -0.44602445 0.5936166 0.51016587 -1.0860776 0.38243917 0.6778009 -0.5716756
-1.0166409 0.035784733 0.21104239 0.6142024 0.051010877 0.45355567 -1.4942795 -0.5687792
0.63300204 0.48900378 0.6702413 0.42673144 -0.7128542 0.0554141 -0.31670186 0.4662155
-0.77160865 -1.0395805 0.3915287 0.66021776 -0.942508 -0.8677302 -0.64112574 0.79429865
-0.5035321 -1.0953398 0.4073474 0.5269124 0.5140226 0.4494262 0.30601957 0.0652247
0.004067488 0.7280184 0.608717 0.760187 0.037339382 0.50739634 0.61398447 0.4297044
0.0014170855 -0.04064901 -0.006586949 0.5147768 0.13319862 -1.5534883 0.5895335 -0.62802887
0.8286402 -0.5401229 0.21565999 -0.98679584 0.5284263 0.0039027005 0.68878376 0.59737283
0.36238748 0.35394526 0.4106147 0.677035 -0.02029738 0.6399148 -0.43373123 -0.005511403
0.019864533 -1.1414495 0.5776098 0.54308146 -0.66769195 0.3209039 0.6690147 0.5829039
0.44469786 0.74636024 0.43482175 0.4738815 -0.027067043 0.0063701835 -0.90835077 0.63837045

fc2.bias f4 [2]
00000000: 8412 b13e 06a8 ee3e
0.3458444 0.46612567
