DQN/weight/target_actor.pth (torch, 5023 bytes, 4 tensors)

fc1.weight f4 [128, 4]
00000000: 37b8 473f 91fe f6be 941d 1ec0 ca1b 83bf
00000010: d6ab 18be 769d f33e 7cda e43f 0c3b 7c3f
00000020: 853c 1e3d 62af d43d 6b04 89be b77b 063e
00000030: 02bc e0be 4656 56be 54e1 7ebe 899a e33d
00000040: 9c20 863f b765 c0be 8082 17c0 8f9d 72bf
00000050: 73d5 babc 4ae0 e13e bcb9 52bd c21c 0c3f
00000060: 709e 6b3c 4088 c3bd 6ce0 983e a326 d2bd
00000070: 3ae5 763c c0ae b23d e3c2 c4be fd4b c93e
00000080: fabb 75be d2c6 adbe ebe0 efbe 1494 1fbe
00000090: a964 25bf cd62 fc3e 6ad8 1b40 6e8c 8c3f
000000a0: 6e7b ac3d b16a aabe 5f7c 14bd 155a 45be
000000b0: 09f4 cfbf 0732 edbe 9c8e 1640 548d 5a3f
000000c0: f18d 13bf c976 173e 4d2e f43f 3ce5 833f
000000d0: 2734 823f b406 28bf 957c d9bf 2ded 7fbf
000000e0: ddbe 2a3e 4c66 9abe 9b76 bfbe 2036 18be
000000f0: d6cf 94bd 493d b13e 2ee4 d9bd 85a1 23bd
00000100: f9f3 943e f617 673c df2d fcbb c3e0 823e
00000110: c370 df3f 4643 e53e 2643 f3bf 2a7f 1cbf
00000120: 2cd0 7b3e 1ca4 163f 0138 da3e fafb 013f
00000130: bbc3 713e 13d6 b3be c5dd e6bd f176 62be
00000140: 248b e73e 46b0 e1bd 06c6 bebf 5f03 8fbf
00000150: d5be 693d 5f4c f7bd 256f 3bbd 4bf9 44be
00000160: 471c 0bbf 7ffd ccbe aa85 c53f 73e0 243f
00000170: b2d2 753e 52d6 a33e 0d1f b5be 0d2a 97be
00000180: 582f 3a3f 9c38 46be 455c 63bf 0b96 8abc
00000190: caad f03f 9cd1 c63d 928d f9bf 914c 29bf
000001a0: 020a a23e 9091 44bf b361 23c0 b3c6 8fbf
000001b0: e6c0 dbbd 465e 443e 9e60 19be 9d3a dd3e
000001c0: 49aa 463f 52c2 b23c c36d a9bf 8d8a 69bf
000001d0: 1334 15be 51e0 d83d 5537 b63d bcf2 8a3e
000001e0: 675a 9dbe acd8 703e f3b2 0940 7c0a 683f
000001f0: bc25 92bf 59e8 bfbe a182 753e 0f0d 183e
00000200: f0fa 69be 03fe 90be dc60 12be 597b 433e
00000210: bcbf 8abe d28f 4e3d ea2c 963e f2de b63d
00000220: 1afd 303e 30a1 b93e 57bd e13f b559 503f
00000230: 9e78 413f d741 df3e 4685 fd3d 5b20 9abd
00000240: 6caf efbf 72af 26bf 6b5c 0640 d737 0d3f
00000250: 9b08 58be 2160 bcbe ac34 0abf af95 7bbe
00000260: a783 273f 1cb8 c3be d31b d0bf e377 92bf
00000270: 2eb0 9f3e 8a52 c8be f07b d8bd 1c9a 4fbe
00000280: 4c62 13be 08be 26be c995 0abf be7b 2cbe
00000290: ae2e bbbf d5dc c0be 3fda b53f 74da 303f
000002a0: 29e2 a2be 7507 7fbc 30f6 9c3e 2ae1 ebbc
000002b0: 02b8 f23e b449 7f3e d6a9 0fbf f657 da3e
000002c0: 203f b93e 1a82 72bf f5d1 b1bf 8dcc 7abf
000002d0: ed46 cfbd f74a b83d 4213 063f 0fd9 6b3e
000002e0: 4aa1 843e d1d7 1d3e 87f7 4cbe 2b46 f83d
000002f0: e25f 5fbf 990f d73e 12e9 3340 d6c1 853f
00000300: 3041 183f 6f63 07bf 0385 22c0 37eb 89bf
00000310: e970 a8be 9b6f 083e ff48 85be f4ef da3c
00000320: bb59 ae3e 7e54 5d3e a7fa 2bbf 60a4 e2be
00000330: f9b8 b2be db4c f23e be7d 70bd 924c 0e3f
00000340: e1be 133e 617a db3c 5458 063d c342 7fbd
00000350: d460 4d3d 2e36 3cbd a3ec d7bb 34f5 5d3e
00000360: 4cdb f53d 90ca 9fbf 578f ddbf 3b9e 8bbf
00000370: 7a80 b93f c574 113f 9e62 9cbf 0436 98be
00000380: 06d1 d9be 79af 5e3e 56cf e3be 0ec4 be3d
00000390: 71ae aabe cf17 423e 1735 373e a213 d53e
000003a0: 2a42 033e 2adc 873e f7ba 133e d981 a03d
000003b0: b07c 473e 7ac8 86be 0512 5dbe 08dd 903e
000003c0: 1ded c43f a27b cd3d 5c0d fabf 441c 0bbf
000003d0: d131 9e3e b63e ddbe 3177 d33e 1b1b b9be
000003e0: fe61 acbf 06d7 babe 4a3d c93f cfad 103f
000003f0: 7486 003f 3147 e3bd 6bef d9be a86b 0bbd
0.78015465 -0.48241094 -2.4705553 -1.0242856 -0.149093 0.4758107 1.7879176 0.985276
0.038631935 0.10385014 -0.26761183 0.13133131 -0.4389344 -0.20931348 -0.24890643 0.111134596
1.0478702 -0.37577602 -2.36734 -0.94771665 -0.022806859 0.4411643 -0.05144666 0.5473138
0.014381036 -0.09547472 0.2985872 -0.102612756 0.0150693 0.08724737 -0.38429937 0.39315787
-0.23997489 -0.3394075 -0.46851286 -0.15583831 -0.6460672 0.4929413 2.4350839 1.0980356
0.0842198 -0.33284524 -0.036251422 -0.19272645 -1.6246349 -0.4632723 2.3524542 0.853719
-0.5763846 0.14791407 1.907663 1.0304332 1.0172166 -0.6563523 -1.6991144 -0.99971277
0.16674371 -0.3015617 -0.37395176 -0.14864397 -0.07266204 0.3461707 -0.10639225 -0.03994896
0.29092386 0.014104834 -0.007695898 0.25562105 1.7456287 0.44777888 -1.9004867 -0.61131537
0.2459113 0.5884416 0.42620853 0.5077511 0.23609821 -0.35124263 -0.11272768 -0.22115685
0.45223343 -0.110199496 -1.4904182 -1.1172904 0.057066757 -0.120751135 -0.045760293 -0.19235723
-0.5434002 -0.40037152 1.5431416 0.6440498 0.24006155 0.3199945 -0.35375252 -0.2952427
0.7272849 -0.19357532 -0.8881267 -0.01691725 1.8803036 0.097079486 -1.9496329 -0.66132456
0.3164826 -0.7678461 -2.552838 -1.1232513 -0.10730152 0.19176587 -0.14978263 0.4320878
0.77603585 0.021821175 -1.3236622 -0.91227037 -0.14570646 0.1058966 0.088972725 0.27138317
-0.30733034 0.23520154 2.1515472 0.90641 -1.1417766 -0.37481955 0.23975612 0.14848731
-0.22849631 -0.28318796 -0.14294761 0.19090022 -0.27099407 0.050430126 0.29331142 0.08929242
0.1728405 0.3625579 1.7635907 0.8138688 0.7557467 0.4360492 0.123789355 -0.075257026
-1.872541 -0.6511146 2.0993907 0.5516333 -0.21097033 -0.3679209 -0.5398662 -0.24568819
0.6543526 -0.38226402 -1.6258491 -1.1442837 0.31189102 -0.39125472 -0.10570514 -0.20273632
-0.14392966 -0.16283429 -0.54134804 -0.16844079 -1.462362 -0.3766848 1.4207228 0.69083333
-0.31813172 -0.015565743 0.30656576 -0.02879389 0.47406012 0.2493046 -0.56118524 0.42645234
0.36180973 -0.9472977 -1.3892199 -0.9796837 -0.1012095 0.089986734 0.52373135 0.2303202
0.25904304 0.15414359 -0.20016299 0.121227585 -0.8725568 0.42004088 2.8111005 1.0449779
0.5947447 -0.528861 -2.5393684 -1.0774907 -0.32898644 0.13323824 -0.26032254 0.026725747
0.34052834 0.21614262 -0.6717934 -0.44266033 -0.34906748 0.4732426 -0.058713667 0.5558559
0.14428283 0.026791753 0.03279908 -0.06231953 0.05014117 -0.045950107 -0.0065894886 0.21675569
0.12004718 -1.2483692 -1.7309369 -1.0907663 1.4492333 0.568188 -1.2217596 -0.2972871
-0.42542285 0.21746625 -0.44494122 0.09314738 -0.33336213 0.18954395 0.17891346 0.4161654
0.12818208 0.2653516 0.1442679 0.078372665 0.19481158 -0.26324826 -0.21588905 0.28293633
1.5384861 0.10033347 -1.9535327 -0.54340005 0.30897382 -0.43211907 0.41301873 -0.36153492
-1.3467405 -0.36492175 1.5721829 0.5651521 0.5020516 -0.11097563 -0.42565474 -0.034038216

fc1.bias f4 [128]
00000000: bc01 8abd 30ff 67be 1b53 663f 5b03 553f
00000010: 9c51 5abe 54dc 433f 7a6e 893f 216c da3e
00000020: c870 643f 2112 31be 882d 723f 853f 08bf
00000030: 0957 f2be fff2 35be e2ba 8a3f 4ee4 b33e
00000040: a5ca 323f f44b dfbd 5fac 913f 62d0 943f
00000050: da49 b5be f23a e2be 7b22 18bf 810f f63e
00000060: 684a 5a3f 25b5 06be 36b4 fcbc ce8f 4a3f
00000070: 1bbf 8abe 8932 453f e28f c23b a717 c73d
00000080: 74d1 573f 25ee 8d3f 75aa 31bd 7531 4f3f
00000090: 1d0b 1fbe 3ad6 9c3f 7c0b a9be d26a f5be
000000a0: b9e0 9d3f d21b 80bd 4f26 5a3f ad2a 2f3f
000000b0: 2efb 61be 5fb1 0a3f 8ecc 8a3f 189a 233e
000000c0: f374 03be a366 aabe 9f7b 8f3f 09c7 5d3f
000000d0: 785d b8be aeaf 903f a0b2 c5bd d359 753d
000000e0: 93ac 913f b74e 4e3f 7098 a03f bebb 7f3f
000000f0: 993f c5bd 063b c4be c4cb 2f3d 3871 913f
00000100: 308c 7bbe f466 75be 121d 623f 227f 9d3f
00000110: acfb 15be 9faa 30bf 6a4a 28bf 9491 603f
00000120: 8686 02be 5fa6 d3bd b059 413f 2083 633f
00000130: 14be 963f 1f2e 8d3f a1de 153f 7ebb e1be
00000140: d853 e7be 5913 953f 7105 7f3f dfea 6d3f
00000150: c30f 1bbe 9db4 973f 8273 933f ea47 713f
00000160: 30f5 d7be ed57 78be 4d3f 163c 19e4 9a3f
00000170: 4c71 813e 201a 07be f3c4 6f3f 89f1 31be
00000180: 53b4 3e3f 71b2 d2bd 50d6 153f 4d49 d9be
00000190: 4a9d 723f 4643 a13e d175 703f f45b 953f
000001a0: 4ea2 6b3f 7fe6 4c3f ce1e 8e3f 845f 463f
000001b0: f42a 9abe ce7e 9a3f fc3d d2be 38c6 f9be
000001c0: f3f1 60bb 1b46 9fbe b644 9a3f fe34 503f
000001d0: a8f2 84be b036 2a3f b4b1 8d3f e6a2 383f
000001e0: 6f89 703f 5d01 413f c081 2d3f b03c 163f
000001f0: abaa 8b3e 6cee 05bf d86d 07bf bb44 663f
-0.06738612 -0.2265594 0.8997056 0.83208245 -0.21320194 0.7650807 1.073684 0.4266062
0.8923459 -0.17292072 0.94600725 -0.53221923 -0.47332028 -0.17768477 1.0838282 0.3513512
0.6984046 -0.10903159 1.1380728 1.1626093 -0.35407907 -0.44185597 -0.59427613 0.48058704
0.85269785 -0.13155039 -0.03084765 0.7912568 -0.27098927 0.77030236 0.0059375623 0.09721308
0.84303975 1.1088301 -0.04337545 0.8093484 -0.15531583 1.2252877 -0.33016574 -0.4793306
1.2334205 -0.06255306 0.85214704 0.68424493 -0.22068474 0.54176897 1.0843675 0.15976751
-0.12837581 -0.3328143 1.1209601 0.8663183 -0.3600881 1.1303613 -0.09653211 0.059900116
1.138079 0.8058886 1.254652 0.99895847 -0.09631271 -0.3832628 0.042918935 1.1362677
-0.24565196 -0.23965055 0.8832561 1.2304423 -0.14646786 -0.6901035 -0.65738547 0.87722135
-0.12746629 -0.10334467 0.7552748 0.88871956 1.1776757 1.10297 0.5854283 -0.44088358
-0.45181155 1.164653 0.9961768 0.9293651 -0.15142731 1.1851994 1.1519625 0.9425036
-0.4217925 -0.24252291 0.0091703655 1.210086 0.2528175 -0.1319356 0.93659896 -0.17377295
0.744939 -0.10287941 0.5853014 -0.42438737 0.94771254 0.31496638 0.93929774 1.1668687
0.9204453 0.8003921 1.1103151 0.77489495 -0.30110896 1.2069948 -0.41062915 -0.4878404
-0.00343239 -0.31108174 1.2052219 0.8133086 -0.25966382 0.66489697 1.1069856 0.72123563
0.9395971 0.75392705 0.6777611 0.5868635 0.27278647 -0.5231693 -0.52901983 0.89948624

fc2.weight f4 [2, 128]
00000000: cbb2 38bf d384 eabe 3f8d 3f3f 6af1 8d3e
00000010: 32a3 68bf 6c4b fe3e a9fb 3f3f 164e 083e
00000020: f26b 473f f156 77bf 932e 3d3f 99dc 0abf
00000030: e54b 35be 6e20 68bf c3bd fe3e 5c73 e53e
00000040: 3dc8 a93e aff5 1dbf 697f d93e e43a fa3e
00000050: fd8a 3abf 6c06 9dbc b160 21bd 5f49 523f
00000060: 8384 863f 4c47 40bf b4c3 4abf 277d b13e
00000070: 6d36 1dbf be87 ce3e da1a 6bbf e9d9 c0be
00000080: a57e 233e 7f8d ec3e e4b6 07bf 8df3 823f
00000090: b616 3dbf 9a70 063f e1ac 70bf 78ea c3bc
000000a0: 1887 343f 6acf 51bf 0417 3c3f e00d d03e
000000b0: 2c3c 9ebf fda1 613e 18b0 303f 310b 91bf
000000c0: 257d 60bf 3498 d83c 2597 b43f 03d0 af3e
000000d0: aa01 693d 7d4c e13e aa06 6ebf d9ef dcbe
000000e0: 4d52 383f dcd9 373e 3c2a 433f 0ef5 863e
000000f0: 9f9c 36bf ebc4 adbc 9105 52bf 4858 0e3f
00000100: 347d 62bf f269 65bf eb0a a53e deba 383f
00000110: 8558 56bf 8570 8fbd ae89 a3be 29db 553f
00000120: 8844 44bf 983d 72bf 8497 d13e fc8f d83e
00000130: 7218 813e 2749 053f 6aa5 383e cd7e 9a3d
00000140: 4fcf 923d 971c 2e3f f51f 363f 3490 323f
00000150: 4762 c5be d5ff a03e 3c7c 0d3f db77 953e
00000160: 7e1b 5b3d e7a1 033c aa58 8cbe 7318 5e3f
00000170: a9b2 e9be bdf6 68bf e2aa ef3e 7d61 4cbe
00000180: f60a 323f 7798 17bf bb2e ed3d 45be fbbe
00000190: fadc 7a3e a598 e3be 077a 4c3f 08b2 233f
000001a0: b918 8e3e 576b 763e 3700 073f b860 353f
000001b0: 18bf 1ebc eb9c 153f 97cb d7be 0030 1938
000001c0: 129f 90bd a82d 14bf 1ea9 2b3f 2671 713f
000001d0: e8f7 73bf 9d49 4d3e bc01 3c3f 3f82 183f
000001e0: ad8d 5e3e ab14 f03e b6b0 b33e 12d8 563e
000001f0: 902f e1be 20a6 7dbd 998f edbe 27f4 cf3e
00000200: 1f98 60bf bf0d 4bbf 8761 333f becd ac3e
00000210: 0cf4 3fbf bd9a 363f 1b78 2e3f 8515 083e
00000220: d156 2c3f aafa 86bf 455b 2b3f 7136 64bf
00000230: 7a13 71bf 2ed0 58bf 60cf 033f 65a3 02bd
00000240: a2fd e53e 53ad 14bf a431 053f 0f36 a63e
00000250: dc70 a9be 351f abbc 7d1e 43bf aa2f 8abe
00000260: 47f3 143f 386d 2cbf d11a 90bf 9394 073f
00000270: ad91 b2be efa0 ee3e 7dbc 29bf bcef b13e
00000280: 41f7 dd3e 12c1 e43e f299 0bbf d1db 113f
00000290: a4a7 00bf 429a 0a3f f40e 08bf 20b7 51bd
000002a0: 4c93 193f 8842 e4be b641 183f 94ae 023f
000002b0: 2f49 8abf bae1 c33e ccc0 2d3f 2a6c 12bf
000002c0: 349a 81bf 0393 123d 36b2 593e 353b 1d3f
000002d0: c8f0 503d 0fb8 e83e 7078 bebf 773d 11bf
000002e0: ab53 223f be84 fa3e 8ac7 2b3f 1815 db3e
000002f0: 10f7 35bf e5f9 623d 7d21 a2be ef73 ef3e
00000300: 417c 44bf 0603 85bf e5f2 c83e 6f4f 293f
00000310: c424 70bf 2fbb 5dbf ccd8 23bf fd68 4b3f
00000320: 55d1 00bf 7499 8bbf 935b d13e ef17 073f
00000330: 3cd8 033f 86c8 e63e b0ba 9c3e 8794 853d
00000340: 9048 853b 3972 3a3f 1e5a 1c3f f9b4 423f
00000350: 381c 163d 160d 023f 3f39 1d3f 4b2b dc3e
00000360: 80bd b93a 947f 26bd 6d2e bdbb a0fb 033f
00000370: 2608 083e ce04 c6bf 43e5 163f 49a4 20bf
00000380: 77fd 533f a766 09bf 8f97 5d3e 2c60 7cbf
00000390: 0b5a 073f 278d 6e3b ba8d 303f d73e 193f
000003a0: b5b5 b93e c7ae b53e 523e d33e 9e79 2d3f
000003b0: b146 a6bc ea44 243f 83aa ddbe 0099 b4bb
000003c0: 43ce a63c 7106 92bf a524 143f 7498 0b3f
000003d0: ea24 2abf d245 a43e 93a8 2b3f 5251 153f
000003e0: ca3c e43e 2b01 3f3f b424 df3e 5f31 f33e
000003f0: 5753 e0bc f9bc d03b 063b 68bf a980 233f
-0.72147816 -0.45804462 0.748249 0.27723247 -0.90874016 0.49666917 0.7499338 0.13311037
0.77899086 -0.9661704 0.7389919 -0.54242855 -0.17704733 -0.90674484 0.49754152 0.44814575
0.33160582 -0.6170301 0.4248002 0.48873055 -0.7286833 -0.019168101 -0.039398853 0.82143205
1.0509189 -0.7510879 -0.7920487 0.34665796 -0.6141117 0.40337938 -0.9183785 -0.37666252
0.1596628 0.46201703 -0.53013444 1.0230576 -0.7386278 0.52515566 -0.9401379 -0.023915514
0.70518637 -0.81957114 0.7347262 0.40635586 -1.2362113 0.2203445 0.690187 -1.133154
-0.87690955 0.026439764 1.4108626 0.34338388 0.056886353 0.44003668 -0.9297892 -0.4315174
0.7200058 0.179542 0.7623632 0.26358837 -0.71332735 -0.021212062 -0.82039744 0.55603456
-0.88472295 -0.89614785 0.32234892 0.72160137 -0.8372882 -0.07003883 -0.3194098 0.83537537
-0.7666707 -0.94625235 0.4093591 0.4229735 0.25213963 0.52064747 0.1803185 0.075437166
0.07168447 0.68012375 0.7114251 0.69751287 -0.38551542 0.31445184 0.5526769 0.29193005
0.053493015 0.008034206 -0.27411395 0.86756057 -0.4564412 -0.9100149 0.4681006 -0.19959064
0.69547975 -0.5921702 0.11581179 -0.49168602 0.24498358 -0.44452396 0.798737 0.6394353
0.27753237 0.24064384 0.527347 0.70850706 -0.009689115 0.5844256 -0.42147514 3.6522746e-05
-0.0706159 -0.57882166 0.6705493 0.94313276 -0.9530015 0.20047612 0.73440146 0.5957374
0.21733733 0.46890768 0.35095757 0.20980862 -0.439816 -0.061926007 -0.4639862 0.4061596
-0.8773212 -0.7931785 0.7007069 0.3375072 -0.7498176 0.7132986 0.68152016 0.13289459
0.6731997 -1.0545247 0.6693614 -0.8914557 -0.94170344 -0.84692657 0.51488304 -0.031894106
0.4492007 -0.5807697 0.5202887 0.32463118 -0.33093917 -0.020888904 -0.76218396 -0.2698949
0.5818371 -0.67354155 -1.1258184 0.5296108 -0.34876767 0.46607158 -0.66303235 0.34753215
0.43352702 0.4467855 -0.54531777 0.5697604 -0.502558 0.5414163 -0.53147817 -0.051200032
0.5999038 -0.4458201 0.59475267 0.51047635 -1.0803584 0.38258153 0.6787231 -0.57196295
-1.0125184 0.035784733 0.21259388 0.6141847 0.051010877 0.45452926 -1.4880505 -0.5673441
0.6340892 0.489294 0.6710135 0.4278953 -0.7108011 0.0554141 -0.31666175 0.46768138
-0.76752096 -1.0391548 0.39247814 0.6613683 -0.938061 -0.86613744 -0.6400268 0.79457074
-0.50319415 -1.0906205 0.40890178 0.52770895 0.5150182 0.45074862 0.3061118 0.0652247
0.004067488 0.7283054 0.6107501 0.7605739 0.036648005 0.5080122 0.61415476 0.4300178
0.0014170855 -0.04064901 -0.0057733567 0.51555824 0.13284358 -1.5470216 0.58943576 -0.6275068
0.8280863 -0.5367226 0.21639846 -0.98584247 0.5287177 0.0036400051 0.6896626 0.5986151
0.36271444 0.35484907 0.41258484 0.677637 -0.02029738 0.64167655 -0.43294153 -0.005511403
0.020362025 -1.1408216 0.57868415 0.545295 -0.66462576 0.3208452 0.670541 0.5832721
0.44577628 0.7461116 0.4358269 0.47498605 -0.02738349 0.0063701835 -0.9071506 0.63868195

fc2.bias f4 [2]
00000000: 4e28 b03e 8a3d ef3e
0.3440575 0.46726638
